<?xml version="1.0" ?>
<net name="faceNetOneshotJune" version="10">
	<layers>
		<layer id="0" name="x" type="Parameter" version="opset1">
			<data element_type="f16" shape="1,3,160,160"/>
			<output>
				<port id="0" precision="FP16">
					<dim>1</dim>
					<dim>3</dim>
					<dim>160</dim>
					<dim>160</dim>
				</port>
			</output>
		</layer>
		<layer id="1" name="x/reverse_input_channels/Concat73671_const" type="Const" version="opset1">
			<data element_type="f16" offset="0" shape="32,3,3,3" size="1728"/>
			<output>
				<port id="1" precision="FP16">
					<dim>32</dim>
					<dim>3</dim>
					<dim>3</dim>
					<dim>3</dim>
				</port>
			</output>
		</layer>
		<layer id="2" name="model_1/model/inception_resnet_v1/Conv2d_1a_3x3/StatefulPartitionedCall/Conv2D" type="Convolution" version="opset1">
			<data auto_pad="valid" dilations="1,1" output_padding="0,0" pads_begin="0,0" pads_end="0,0" strides="2,2"/>
			<input>
				<port id="0">
					<dim>1</dim>
					<dim>3</dim>
					<dim>160</dim>
					<dim>160</dim>
				</port>
				<port id="1">
					<dim>32</dim>
					<dim>3</dim>
					<dim>3</dim>
					<dim>3</dim>
				</port>
			</input>
			<output>
				<port id="2" precision="FP16">
					<dim>1</dim>
					<dim>32</dim>
					<dim>79</dim>
					<dim>79</dim>
				</port>
			</output>
		</layer>
		<layer id="3" name="data_add_477604776549354/EltwiseUnsqueeze50711_const" type="Const" version="opset1">
			<data element_type="f16" offset="1728" shape="1,32,1,1" size="64"/>
			<output>
				<port id="1" precision="FP16">
					<dim>1</dim>
					<dim>32</dim>
					<dim>1</dim>
					<dim>1</dim>
				</port>
			</output>
		</layer>
		<layer id="4" name="model_1/model/inception_resnet_v1/Conv2d_1a_3x3_BatchNorm/StatefulPartitionedCall/FusedBatchNormV3/variance/Fused_Add_" type="Add" version="opset1">
			<input>
				<port id="0">
					<dim>1</dim>
					<dim>32</dim>
					<dim>79</dim>
					<dim>79</dim>
				</port>
				<port id="1">
					<dim>1</dim>
					<dim>32</dim>
					<dim>1</dim>
					<dim>1</dim>
				</port>
			</input>
			<output>
				<port id="2" precision="FP16">
					<dim>1</dim>
					<dim>32</dim>
					<dim>79</dim>
					<dim>79</dim>
				</port>
			</output>
		</layer>
		<layer id="5" name="model_1/model/inception_resnet_v1/Conv2d_1a_3x3_Activation/PartitionedCall/Relu" type="ReLU" version="opset1">
			<input>
				<port id="0">
					<dim>1</dim>
					<dim>32</dim>
					<dim>79</dim>
					<dim>79</dim>
				</port>
			</input>
			<output>
				<port id="1" precision="FP16">
					<dim>1</dim>
					<dim>32</dim>
					<dim>79</dim>
					<dim>79</dim>
				</port>
			</output>
		</layer>
		<layer id="6" name="model_1/model/inception_resnet_v1/Conv2d_2a_3x3/StatefulPartitionedCall/Conv2D/Transpose60128_const" type="Const" version="opset1">
			<data element_type="f16" offset="1792" shape="32,32,3,3" size="18432"/>
			<output>
				<port id="1" precision="FP16">
					<dim>32</dim>
					<dim>32</dim>
					<dim>3</dim>
					<dim>3</dim>
				</port>
			</output>
		</layer>
		<layer id="7" name="model_1/model/inception_resnet_v1/Conv2d_2a_3x3/StatefulPartitionedCall/Conv2D" type="Convolution" version="opset1">
			<data auto_pad="valid" dilations="1,1" output_padding="0,0" pads_begin="0,0" pads_end="0,0" strides="1,1"/>
			<input>
				<port id="0">
					<dim>1</dim>
					<dim>32</dim>
					<dim>79</dim>
					<dim>79</dim>
				</port>
				<port id="1">
					<dim>32</dim>
					<dim>32</dim>
					<dim>3</dim>
					<dim>3</dim>
				</port>
			</input>
			<output>
				<port id="2" precision="FP16">
					<dim>1</dim>
					<dim>32</dim>
					<dim>77</dim>
					<dim>77</dim>
				</port>
			</output>
		</layer>
		<layer id="8" name="data_add_477684777349356/EltwiseUnsqueeze50719_const" type="Const" version="opset1">
			<data element_type="f16" offset="20224" shape="1,32,1,1" size="64"/>
			<output>
				<port id="1" precision="FP16">
					<dim>1</dim>
					<dim>32</dim>
					<dim>1</dim>
					<dim>1</dim>
				</port>
			</output>
		</layer>
		<layer id="9" name="model_1/model/inception_resnet_v1/Conv2d_2a_3x3_BatchNorm/StatefulPartitionedCall/FusedBatchNormV3/variance/Fused_Add_" type="Add" version="opset1">
			<input>
				<port id="0">
					<dim>1</dim>
					<dim>32</dim>
					<dim>77</dim>
					<dim>77</dim>
				</port>
				<port id="1">
					<dim>1</dim>
					<dim>32</dim>
					<dim>1</dim>
					<dim>1</dim>
				</port>
			</input>
			<output>
				<port id="2" precision="FP16">
					<dim>1</dim>
					<dim>32</dim>
					<dim>77</dim>
					<dim>77</dim>
				</port>
			</output>
		</layer>
		<layer id="10" name="model_1/model/inception_resnet_v1/Conv2d_2a_3x3_Activation/PartitionedCall/Relu" type="ReLU" version="opset1">
			<input>
				<port id="0">
					<dim>1</dim>
					<dim>32</dim>
					<dim>77</dim>
					<dim>77</dim>
				</port>
			</input>
			<output>
				<port id="1" precision="FP16">
					<dim>1</dim>
					<dim>32</dim>
					<dim>77</dim>
					<dim>77</dim>
				</port>
			</output>
		</layer>
		<layer id="11" name="model_1/model/inception_resnet_v1/Conv2d_2b_3x3/StatefulPartitionedCall/Conv2D/Transpose60132_const" type="Const" version="opset1">
			<data element_type="f16" offset="20288" shape="64,32,3,3" size="36864"/>
			<output>
				<port id="1" precision="FP16">
					<dim>64</dim>
					<dim>32</dim>
					<dim>3</dim>
					<dim>3</dim>
				</port>
			</output>
		</layer>
		<layer id="12" name="model_1/model/inception_resnet_v1/Conv2d_2b_3x3/StatefulPartitionedCall/Conv2D" type="Convolution" version="opset1">
			<data auto_pad="same_upper" dilations="1,1" output_padding="0,0" pads_begin="0,0" pads_end="0,0" strides="1,1"/>
			<input>
				<port id="0">
					<dim>1</dim>
					<dim>32</dim>
					<dim>77</dim>
					<dim>77</dim>
				</port>
				<port id="1">
					<dim>64</dim>
					<dim>32</dim>
					<dim>3</dim>
					<dim>3</dim>
				</port>
			</input>
			<output>
				<port id="2" precision="FP16">
					<dim>1</dim>
					<dim>64</dim>
					<dim>77</dim>
					<dim>77</dim>
				</port>
			</output>
		</layer>
		<layer id="13" name="data_add_477764778149358/EltwiseUnsqueeze50727_const" type="Const" version="opset1">
			<data element_type="f16" offset="57152" shape="1,64,1,1" size="128"/>
			<output>
				<port id="1" precision="FP16">
					<dim>1</dim>
					<dim>64</dim>
					<dim>1</dim>
					<dim>1</dim>
				</port>
			</output>
		</layer>
		<layer id="14" name="model_1/model/inception_resnet_v1/Conv2d_2b_3x3_BatchNorm/StatefulPartitionedCall/FusedBatchNormV3/variance/Fused_Add_" type="Add" version="opset1">
			<input>
				<port id="0">
					<dim>1</dim>
					<dim>64</dim>
					<dim>77</dim>
					<dim>77</dim>
				</port>
				<port id="1">
					<dim>1</dim>
					<dim>64</dim>
					<dim>1</dim>
					<dim>1</dim>
				</port>
			</input>
			<output>
				<port id="2" precision="FP16">
					<dim>1</dim>
					<dim>64</dim>
					<dim>77</dim>
					<dim>77</dim>
				</port>
			</output>
		</layer>
		<layer id="15" name="model_1/model/inception_resnet_v1/Conv2d_2b_3x3_Activation/PartitionedCall/Relu" type="ReLU" version="opset1">
			<input>
				<port id="0">
					<dim>1</dim>
					<dim>64</dim>
					<dim>77</dim>
					<dim>77</dim>
				</port>
			</input>
			<output>
				<port id="1" precision="FP16">
					<dim>1</dim>
					<dim>64</dim>
					<dim>77</dim>
					<dim>77</dim>
				</port>
			</output>
		</layer>
		<layer id="16" name="model_1/model/inception_resnet_v1/MaxPool_3a_3x3/PartitionedCall/MaxPool" type="MaxPool" version="opset1">
			<data auto_pad="valid" kernel="3,3" pads_begin="0,0" pads_end="0,0" strides="2,2"/>
			<input>
				<port id="0">
					<dim>1</dim>
					<dim>64</dim>
					<dim>77</dim>
					<dim>77</dim>
				</port>
			</input>
			<output>
				<port id="1" precision="FP16">
					<dim>1</dim>
					<dim>64</dim>
					<dim>38</dim>
					<dim>38</dim>
				</port>
			</output>
		</layer>
		<layer id="17" name="model_1/model/inception_resnet_v1/Conv2d_3b_1x1/StatefulPartitionedCall/Conv2D/Transpose60136_const" type="Const" version="opset1">
			<data element_type="f16" offset="57280" shape="80,64,1,1" size="10240"/>
			<output>
				<port id="1" precision="FP16">
					<dim>80</dim>
					<dim>64</dim>
					<dim>1</dim>
					<dim>1</dim>
				</port>
			</output>
		</layer>
		<layer id="18" name="model_1/model/inception_resnet_v1/Conv2d_3b_1x1/StatefulPartitionedCall/Conv2D" type="Convolution" version="opset1">
			<data auto_pad="valid" dilations="1,1" output_padding="0,0" pads_begin="0,0" pads_end="0,0" strides="1,1"/>
			<input>
				<port id="0">
					<dim>1</dim>
					<dim>64</dim>
					<dim>38</dim>
					<dim>38</dim>
				</port>
				<port id="1">
					<dim>80</dim>
					<dim>64</dim>
					<dim>1</dim>
					<dim>1</dim>
				</port>
			</input>
			<output>
				<port id="2" precision="FP16">
					<dim>1</dim>
					<dim>80</dim>
					<dim>38</dim>
					<dim>38</dim>
				</port>
			</output>
		</layer>
		<layer id="19" name="data_add_477844778949360/EltwiseUnsqueeze50735_const" type="Const" version="opset1">
			<data element_type="f16" offset="67520" shape="1,80,1,1" size="160"/>
			<output>
				<port id="1" precision="FP16">
					<dim>1</dim>
					<dim>80</dim>
					<dim>1</dim>
					<dim>1</dim>
				</port>
			</output>
		</layer>
		<layer id="20" name="model_1/model/inception_resnet_v1/Conv2d_3b_1x1_BatchNorm/StatefulPartitionedCall/FusedBatchNormV3/variance/Fused_Add_" type="Add" version="opset1">
			<input>
				<port id="0">
					<dim>1</dim>
					<dim>80</dim>
					<dim>38</dim>
					<dim>38</dim>
				</port>
				<port id="1">
					<dim>1</dim>
					<dim>80</dim>
					<dim>1</dim>
					<dim>1</dim>
				</port>
			</input>
			<output>
				<port id="2" precision="FP16">
					<dim>1</dim>
					<dim>80</dim>
					<dim>38</dim>
					<dim>38</dim>
				</port>
			</output>
		</layer>
		<layer id="21" name="model_1/model/inception_resnet_v1/Conv2d_3b_1x1_Activation/PartitionedCall/Relu" type="ReLU" version="opset1">
			<input>
				<port id="0">
					<dim>1</dim>
					<dim>80</dim>
					<dim>38</dim>
					<dim>38</dim>
				</port>
			</input>
			<output>
				<port id="1" precision="FP16">
					<dim>1</dim>
					<dim>80</dim>
					<dim>38</dim>
					<dim>38</dim>
				</port>
			</output>
		</layer>
		<layer id="22" name="model_1/model/inception_resnet_v1/Conv2d_4a_3x3/StatefulPartitionedCall/Conv2D/Transpose60140_const" type="Const" version="opset1">
			<data element_type="f16" offset="67680" shape="192,80,3,3" size="276480"/>
			<output>
				<port id="1" precision="FP16">
					<dim>192</dim>
					<dim>80</dim>
					<dim>3</dim>
					<dim>3</dim>
				</port>
			</output>
		</layer>
		<layer id="23" name="model_1/model/inception_resnet_v1/Conv2d_4a_3x3/StatefulPartitionedCall/Conv2D" type="Convolution" version="opset1">
			<data auto_pad="valid" dilations="1,1" output_padding="0,0" pads_begin="0,0" pads_end="0,0" strides="1,1"/>
			<input>
				<port id="0">
					<dim>1</dim>
					<dim>80</dim>
					<dim>38</dim>
					<dim>38</dim>
				</port>
				<port id="1">
					<dim>192</dim>
					<dim>80</dim>
					<dim>3</dim>
					<dim>3</dim>
				</port>
			</input>
			<output>
				<port id="2" precision="FP16">
					<dim>1</dim>
					<dim>192</dim>
					<dim>36</dim>
					<dim>36</dim>
				</port>
			</output>
		</layer>
		<layer id="24" name="data_add_477924779749362/EltwiseUnsqueeze50743_const" type="Const" version="opset1">
			<data element_type="f16" offset="344160" shape="1,192,1,1" size="384"/>
			<output>
				<port id="1" precision="FP16">
					<dim>1</dim>
					<dim>192</dim>
					<dim>1</dim>
					<dim>1</dim>
				</port>
			</output>
		</layer>
		<layer id="25" name="model_1/model/inception_resnet_v1/Conv2d_4a_3x3_BatchNorm/StatefulPartitionedCall/FusedBatchNormV3/variance/Fused_Add_" type="Add" version="opset1">
			<input>
				<port id="0">
					<dim>1</dim>
					<dim>192</dim>
					<dim>36</dim>
					<dim>36</dim>
				</port>
				<port id="1">
					<dim>1</dim>
					<dim>192</dim>
					<dim>1</dim>
					<dim>1</dim>
				</port>
			</input>
			<output>
				<port id="2" precision="FP16">
					<dim>1</dim>
					<dim>192</dim>
					<dim>36</dim>
					<dim>36</dim>
				</port>
			</output>
		</layer>
		<layer id="26" name="model_1/model/inception_resnet_v1/Conv2d_4a_3x3_Activation/PartitionedCall/Relu" type="ReLU" version="opset1">
			<input>
				<port id="0">
					<dim>1</dim>
					<dim>192</dim>
					<dim>36</dim>
					<dim>36</dim>
				</port>
			</input>
			<output>
				<port id="1" precision="FP16">
					<dim>1</dim>
					<dim>192</dim>
					<dim>36</dim>
					<dim>36</dim>
				</port>
			</output>
		</layer>
		<layer id="27" name="model_1/model/inception_resnet_v1/Conv2d_4b_3x3/StatefulPartitionedCall/Conv2D/Transpose60144_const" type="Const" version="opset1">
			<data element_type="f16" offset="344544" shape="256,192,3,3" size="884736"/>
			<output>
				<port id="1" precision="FP16">
					<dim>256</dim>
					<dim>192</dim>
					<dim>3</dim>
					<dim>3</dim>
				</port>
			</output>
		</layer>
		<layer id="28" name="model_1/model/inception_resnet_v1/Conv2d_4b_3x3/StatefulPartitionedCall/Conv2D" type="Convolution" version="opset1">
			<data auto_pad="valid" dilations="1,1" output_padding="0,0" pads_begin="0,0" pads_end="0,0" strides="2,2"/>
			<input>
				<port id="0">
					<dim>1</dim>
					<dim>192</dim>
					<dim>36</dim>
					<dim>36</dim>
				</port>
				<port id="1">
					<dim>256</dim>
					<dim>192</dim>
					<dim>3</dim>
					<dim>3</dim>
				</port>
			</input>
			<output>
				<port id="2" precision="FP16">
					<dim>1</dim>
					<dim>256</dim>
					<dim>17</dim>
					<dim>17</dim>
				</port>
			</output>
		</layer>
		<layer id="29" name="data_add_478004780549364/EltwiseUnsqueeze50751_const" type="Const" version="opset1">
			<data element_type="f16" offset="1229280" shape="1,256,1,1" size="512"/>
			<output>
				<port id="1" precision="FP16">
					<dim>1</dim>
					<dim>256</dim>
					<dim>1</dim>
					<dim>1</dim>
				</port>
			</output>
		</layer>
		<layer id="30" name="model_1/model/inception_resnet_v1/Conv2d_4b_3x3_BatchNorm/StatefulPartitionedCall/FusedBatchNormV3/variance/Fused_Add_" type="Add" version="opset1">
			<input>
				<port id="0">
					<dim>1</dim>
					<dim>256</dim>
					<dim>17</dim>
					<dim>17</dim>
				</port>
				<port id="1">
					<dim>1</dim>
					<dim>256</dim>
					<dim>1</dim>
					<dim>1</dim>
				</port>
			</input>
			<output>
				<port id="2" precision="FP16">
					<dim>1</dim>
					<dim>256</dim>
					<dim>17</dim>
					<dim>17</dim>
				</port>
			</output>
		</layer>
		<layer id="31" name="model_1/model/inception_resnet_v1/Conv2d_4b_3x3_Activation/PartitionedCall/Relu" type="ReLU" version="opset1">
			<input>
				<port id="0">
					<dim>1</dim>
					<dim>256</dim>
					<dim>17</dim>
					<dim>17</dim>
				</port>
			</input>
			<output>
				<port id="1" precision="FP16">
					<dim>1</dim>
					<dim>256</dim>
					<dim>17</dim>
					<dim>17</dim>
				</port>
			</output>
		</layer>
		<layer id="32" name="model_1/model/inception_resnet_v1/Block35_1_Branch_0_Conv2d_1x1/StatefulPartitionedCall/Conv2D/Transpose60148_const" type="Const" version="opset1">
			<data element_type="f16" offset="1229792" shape="32,256,1,1" size="16384"/>
			<output>
				<port id="1" precision="FP16">
					<dim>32</dim>
					<dim>256</dim>
					<dim>1</dim>
					<dim>1</dim>
				</port>
			</output>
		</layer>
		<layer id="33" name="model_1/model/inception_resnet_v1/Block35_1_Branch_0_Conv2d_1x1/StatefulPartitionedCall/Conv2D" type="Convolution" version="opset1">
			<data auto_pad="same_upper" dilations="1,1" output_padding="0,0" pads_begin="0,0" pads_end="0,0" strides="1,1"/>
			<input>
				<port id="0">
					<dim>1</dim>
					<dim>256</dim>
					<dim>17</dim>
					<dim>17</dim>
				</port>
				<port id="1">
					<dim>32</dim>
					<dim>256</dim>
					<dim>1</dim>
					<dim>1</dim>
				</port>
			</input>
			<output>
				<port id="2" precision="FP16">
					<dim>1</dim>
					<dim>32</dim>
					<dim>17</dim>
					<dim>17</dim>
				</port>
			</output>
		</layer>
		<layer id="34" name="data_add_478484785349376/EltwiseUnsqueeze50799_const" type="Const" version="opset1">
			<data element_type="f16" offset="1246176" shape="1,32,1,1" size="64"/>
			<output>
				<port id="1" precision="FP16">
					<dim>1</dim>
					<dim>32</dim>
					<dim>1</dim>
					<dim>1</dim>
				</port>
			</output>
		</layer>
		<layer id="35" name="model_1/model/inception_resnet_v1/Block35_1_Branch_0_Conv2d_1x1_BatchNorm/StatefulPartitionedCall/FusedBatchNormV3/variance/Fused_Add_" type="Add" version="opset1">
			<input>
				<port id="0">
					<dim>1</dim>
					<dim>32</dim>
					<dim>17</dim>
					<dim>17</dim>
				</port>
				<port id="1">
					<dim>1</dim>
					<dim>32</dim>
					<dim>1</dim>
					<dim>1</dim>
				</port>
			</input>
			<output>
				<port id="2" precision="FP16">
					<dim>1</dim>
					<dim>32</dim>
					<dim>17</dim>
					<dim>17</dim>
				</port>
			</output>
		</layer>
		<layer id="36" name="model_1/model/inception_resnet_v1/Block35_1_Branch_0_Conv2d_1x1_Activation/PartitionedCall/Relu" type="ReLU" version="opset1">
			<input>
				<port id="0">
					<dim>1</dim>
					<dim>32</dim>
					<dim>17</dim>
					<dim>17</dim>
				</port>
			</input>
			<output>
				<port id="1" precision="FP16">
					<dim>1</dim>
					<dim>32</dim>
					<dim>17</dim>
					<dim>17</dim>
				</port>
			</output>
		</layer>
		<layer id="37" name="model_1/model/inception_resnet_v1/Block35_1_Branch_1_Conv2d_0a_1x1/StatefulPartitionedCall/Conv2D/Transpose60152_const" type="Const" version="opset1">
			<data element_type="f16" offset="1246240" shape="32,256,1,1" size="16384"/>
			<output>
				<port id="1" precision="FP16">
					<dim>32</dim>
					<dim>256</dim>
					<dim>1</dim>
					<dim>1</dim>
				</port>
			</output>
		</layer>
		<layer id="38" name="model_1/model/inception_resnet_v1/Block35_1_Branch_1_Conv2d_0a_1x1/StatefulPartitionedCall/Conv2D" type="Convolution" version="opset1">
			<data auto_pad="same_upper" dilations="1,1" output_padding="0,0" pads_begin="0,0" pads_end="0,0" strides="1,1"/>
			<input>
				<port id="0">
					<dim>1</dim>
					<dim>256</dim>
					<dim>17</dim>
					<dim>17</dim>
				</port>
				<port id="1">
					<dim>32</dim>
					<dim>256</dim>
					<dim>1</dim>
					<dim>1</dim>
				</port>
			</input>
			<output>
				<port id="2" precision="FP16">
					<dim>1</dim>
					<dim>32</dim>
					<dim>17</dim>
					<dim>17</dim>
				</port>
			</output>
		</layer>
		<layer id="39" name="data_add_478084781349366/EltwiseUnsqueeze50759_const" type="Const" version="opset1">
			<data element_type="f16" offset="1262624" shape="1,32,1,1" size="64"/>
			<output>
				<port id="1" precision="FP16">
					<dim>1</dim>
					<dim>32</dim>
					<dim>1</dim>
					<dim>1</dim>
				</port>
			</output>
		</layer>
		<layer id="40" name="model_1/model/inception_resnet_v1/Block35_1_Branch_1_Conv2d_0a_1x1_BatchNorm/StatefulPartitionedCall/FusedBatchNormV3/variance/Fused_Add_" type="Add" version="opset1">
			<input>
				<port id="0">
					<dim>1</dim>
					<dim>32</dim>
					<dim>17</dim>
					<dim>17</dim>
				</port>
				<port id="1">
					<dim>1</dim>
					<dim>32</dim>
					<dim>1</dim>
					<dim>1</dim>
				</port>
			</input>
			<output>
				<port id="2" precision="FP16">
					<dim>1</dim>
					<dim>32</dim>
					<dim>17</dim>
					<dim>17</dim>
				</port>
			</output>
		</layer>
		<layer id="41" name="model_1/model/inception_resnet_v1/Block35_1_Branch_1_Conv2d_0a_1x1_Activation/PartitionedCall/Relu" type="ReLU" version="opset1">
			<input>
				<port id="0">
					<dim>1</dim>
					<dim>32</dim>
					<dim>17</dim>
					<dim>17</dim>
				</port>
			</input>
			<output>
				<port id="1" precision="FP16">
					<dim>1</dim>
					<dim>32</dim>
					<dim>17</dim>
					<dim>17</dim>
				</port>
			</output>
		</layer>
		<layer id="42" name="model_1/model/inception_resnet_v1/Block35_1_Branch_1_Conv2d_0b_3x3/StatefulPartitionedCall/Conv2D/Transpose60156_const" type="Const" version="opset1">
			<data element_type="f16" offset="1262688" shape="32,32,3,3" size="18432"/>
			<output>
				<port id="1" precision="FP16">
					<dim>32</dim>
					<dim>32</dim>
					<dim>3</dim>
					<dim>3</dim>
				</port>
			</output>
		</layer>
		<layer id="43" name="model_1/model/inception_resnet_v1/Block35_1_Branch_1_Conv2d_0b_3x3/StatefulPartitionedCall/Conv2D" type="Convolution" version="opset1">
			<data auto_pad="same_upper" dilations="1,1" output_padding="0,0" pads_begin="0,0" pads_end="0,0" strides="1,1"/>
			<input>
				<port id="0">
					<dim>1</dim>
					<dim>32</dim>
					<dim>17</dim>
					<dim>17</dim>
				</port>
				<port id="1">
					<dim>32</dim>
					<dim>32</dim>
					<dim>3</dim>
					<dim>3</dim>
				</port>
			</input>
			<output>
				<port id="2" precision="FP16">
					<dim>1</dim>
					<dim>32</dim>
					<dim>17</dim>
					<dim>17</dim>
				</port>
			</output>
		</layer>
		<layer id="44" name="data_add_478164782149368/EltwiseUnsqueeze50767_const" type="Const" version="opset1">
			<data element_type="f16" offset="1281120" shape="1,32,1,1" size="64"/>
			<output>
				<port id="1" precision="FP16">
					<dim>1</dim>
					<dim>32</dim>
					<dim>1</dim>
					<dim>1</dim>
				</port>
			</output>
		</layer>
		<layer id="45" name="model_1/model/inception_resnet_v1/Block35_1_Branch_1_Conv2d_0b_3x3_BatchNorm/StatefulPartitionedCall/FusedBatchNormV3/variance/Fused_Add_" type="Add" version="opset1">
			<input>
				<port id="0">
					<dim>1</dim>
					<dim>32</dim>
					<dim>17</dim>
					<dim>17</dim>
				</port>
				<port id="1">
					<dim>1</dim>
					<dim>32</dim>
					<dim>1</dim>
					<dim>1</dim>
				</port>
			</input>
			<output>
				<port id="2" precision="FP16">
					<dim>1</dim>
					<dim>32</dim>
					<dim>17</dim>
					<dim>17</dim>
				</port>
			</output>
		</layer>
		<layer id="46" name="model_1/model/inception_resnet_v1/Block35_1_Branch_1_Conv2d_0b_3x3_Activation/PartitionedCall/Relu" type="ReLU" version="opset1">
			<input>
				<port id="0">
					<dim>1</dim>
					<dim>32</dim>
					<dim>17</dim>
					<dim>17</dim>
				</port>
			</input>
			<output>
				<port id="1" precision="FP16">
					<dim>1</dim>
					<dim>32</dim>
					<dim>17</dim>
					<dim>17</dim>
				</port>
			</output>
		</layer>
		<layer id="47" name="model_1/model/inception_resnet_v1/Block35_1_Branch_2_Conv2d_0a_1x1/StatefulPartitionedCall/Conv2D/Transpose60160_const" type="Const" version="opset1">
			<data element_type="f16" offset="1281184" shape="32,256,1,1" size="16384"/>
			<output>
				<port id="1" precision="FP16">
					<dim>32</dim>
					<dim>256</dim>
					<dim>1</dim>
					<dim>1</dim>
				</port>
			</output>
		</layer>
		<layer id="48" name="model_1/model/inception_resnet_v1/Block35_1_Branch_2_Conv2d_0a_1x1/StatefulPartitionedCall/Conv2D" type="Convolution" version="opset1">
			<data auto_pad="same_upper" dilations="1,1" output_padding="0,0" pads_begin="0,0" pads_end="0,0" strides="1,1"/>
			<input>
				<port id="0">
					<dim>1</dim>
					<dim>256</dim>
					<dim>17</dim>
					<dim>17</dim>
				</port>
				<port id="1">
					<dim>32</dim>
					<dim>256</dim>
					<dim>1</dim>
					<dim>1</dim>
				</port>
			</input>
			<output>
				<port id="2" precision="FP16">
					<dim>1</dim>
					<dim>32</dim>
					<dim>17</dim>
					<dim>17</dim>
				</port>
			</output>
		</layer>
		<layer id="49" name="data_add_478244782949370/EltwiseUnsqueeze50775_const" type="Const" version="opset1">
			<data element_type="f16" offset="1297568" shape="1,32,1,1" size="64"/>
			<output>
				<port id="1" precision="FP16">
					<dim>1</dim>
					<dim>32</dim>
					<dim>1</dim>
					<dim>1</dim>
				</port>
			</output>
		</layer>
		<layer id="50" name="model_1/model/inception_resnet_v1/Block35_1_Branch_2_Conv2d_0a_1x1_BatchNorm/StatefulPartitionedCall/FusedBatchNormV3/variance/Fused_Add_" type="Add" version="opset1">
			<input>
				<port id="0">
					<dim>1</dim>
					<dim>32</dim>
					<dim>17</dim>
					<dim>17</dim>
				</port>
				<port id="1">
					<dim>1</dim>
					<dim>32</dim>
					<dim>1</dim>
					<dim>1</dim>
				</port>
			</input>
			<output>
				<port id="2" precision="FP16">
					<dim>1</dim>
					<dim>32</dim>
					<dim>17</dim>
					<dim>17</dim>
				</port>
			</output>
		</layer>
		<layer id="51" name="model_1/model/inception_resnet_v1/Block35_1_Branch_2_Conv2d_0a_1x1_Activation/PartitionedCall/Relu" type="ReLU" version="opset1">
			<input>
				<port id="0">
					<dim>1</dim>
					<dim>32</dim>
					<dim>17</dim>
					<dim>17</dim>
				</port>
			</input>
			<output>
				<port id="1" precision="FP16">
					<dim>1</dim>
					<dim>32</dim>
					<dim>17</dim>
					<dim>17</dim>
				</port>
			</output>
		</layer>
		<layer id="52" name="model_1/model/inception_resnet_v1/Block35_1_Branch_2_Conv2d_0b_3x3/StatefulPartitionedCall/Conv2D/Transpose60164_const" type="Const" version="opset1">
			<data element_type="f16" offset="1297632" shape="32,32,3,3" size="18432"/>
			<output>
				<port id="1" precision="FP16">
					<dim>32</dim>
					<dim>32</dim>
					<dim>3</dim>
					<dim>3</dim>
				</port>
			</output>
		</layer>
		<layer id="53" name="model_1/model/inception_resnet_v1/Block35_1_Branch_2_Conv2d_0b_3x3/StatefulPartitionedCall/Conv2D" type="Convolution" version="opset1">
			<data auto_pad="same_upper" dilations="1,1" output_padding="0,0" pads_begin="0,0" pads_end="0,0" strides="1,1"/>
			<input>
				<port id="0">
					<dim>1</dim>
					<dim>32</dim>
					<dim>17</dim>
					<dim>17</dim>
				</port>
				<port id="1">
					<dim>32</dim>
					<dim>32</dim>
					<dim>3</dim>
					<dim>3</dim>
				</port>
			</input>
			<output>
				<port id="2" precision="FP16">
					<dim>1</dim>
					<dim>32</dim>
					<dim>17</dim>
					<dim>17</dim>
				</port>
			</output>
		</layer>
		<layer id="54" name="data_add_478324783749372/EltwiseUnsqueeze50783_const" type="Const" version="opset1">
			<data element_type="f16" offset="1316064" shape="1,32,1,1" size="64"/>
			<output>
				<port id="1" precision="FP16">
					<dim>1</dim>
					<dim>32</dim>
					<dim>1</dim>
					<dim>1</dim>
				</port>
			</output>
		</layer>
		<layer id="55" name="model_1/model/inception_resnet_v1/Block35_1_Branch_2_Conv2d_0b_3x3_BatchNorm/StatefulPartitionedCall/FusedBatchNormV3/variance/Fused_Add_" type="Add" version="opset1">
			<input>
				<port id="0">
					<dim>1</dim>
					<dim>32</dim>
					<dim>17</dim>
					<dim>17</dim>
				</port>
				<port id="1">
					<dim>1</dim>
					<dim>32</dim>
					<dim>1</dim>
					<dim>1</dim>
				</port>
			</input>
			<output>
				<port id="2" precision="FP16">
					<dim>1</dim>
					<dim>32</dim>
					<dim>17</dim>
					<dim>17</dim>
				</port>
			</output>
		</layer>
		<layer id="56" name="model_1/model/inception_resnet_v1/Block35_1_Branch_2_Conv2d_0b_3x3_Activation/PartitionedCall/Relu" type="ReLU" version="opset1">
			<input>
				<port id="0">
					<dim>1</dim>
					<dim>32</dim>
					<dim>17</dim>
					<dim>17</dim>
				</port>
			</input>
			<output>
				<port id="1" precision="FP16">
					<dim>1</dim>
					<dim>32</dim>
					<dim>17</dim>
					<dim>17</dim>
				</port>
			</output>
		</layer>
		<layer id="57" name="model_1/model/inception_resnet_v1/Block35_1_Branch_2_Conv2d_0c_3x3/StatefulPartitionedCall/Conv2D/Transpose60168_const" type="Const" version="opset1">
			<data element_type="f16" offset="1316128" shape="32,32,3,3" size="18432"/>
			<output>
				<port id="1" precision="FP16">
					<dim>32</dim>
					<dim>32</dim>
					<dim>3</dim>
					<dim>3</dim>
				</port>
			</output>
		</layer>
		<layer id="58" name="model_1/model/inception_resnet_v1/Block35_1_Branch_2_Conv2d_0c_3x3/StatefulPartitionedCall/Conv2D" type="Convolution" version="opset1">
			<data auto_pad="same_upper" dilations="1,1" output_padding="0,0" pads_begin="0,0" pads_end="0,0" strides="1,1"/>
			<input>
				<port id="0">
					<dim>1</dim>
					<dim>32</dim>
					<dim>17</dim>
					<dim>17</dim>
				</port>
				<port id="1">
					<dim>32</dim>
					<dim>32</dim>
					<dim>3</dim>
					<dim>3</dim>
				</port>
			</input>
			<output>
				<port id="2" precision="FP16">
					<dim>1</dim>
					<dim>32</dim>
					<dim>17</dim>
					<dim>17</dim>
				</port>
			</output>
		</layer>
		<layer id="59" name="data_add_478404784549374/EltwiseUnsqueeze50791_const" type="Const" version="opset1">
			<data element_type="f16" offset="1334560" shape="1,32,1,1" size="64"/>
			<output>
				<port id="1" precision="FP16">
					<dim>1</dim>
					<dim>32</dim>
					<dim>1</dim>
					<dim>1</dim>
				</port>
			</output>
		</layer>
		<layer id="60" name="model_1/model/inception_resnet_v1/Block35_1_Branch_2_Conv2d_0c_3x3_BatchNorm/StatefulPartitionedCall/FusedBatchNormV3/variance/Fused_Add_" type="Add" version="opset1">
			<input>
				<port id="0">
					<dim>1</dim>
					<dim>32</dim>
					<dim>17</dim>
					<dim>17</dim>
				</port>
				<port id="1">
					<dim>1</dim>
					<dim>32</dim>
					<dim>1</dim>
					<dim>1</dim>
				</port>
			</input>
			<output>
				<port id="2" precision="FP16">
					<dim>1</dim>
					<dim>32</dim>
					<dim>17</dim>
					<dim>17</dim>
				</port>
			</output>
		</layer>
		<layer id="61" name="model_1/model/inception_resnet_v1/Block35_1_Branch_2_Conv2d_0c_3x3_Activation/PartitionedCall/Relu" type="ReLU" version="opset1">
			<input>
				<port id="0">
					<dim>1</dim>
					<dim>32</dim>
					<dim>17</dim>
					<dim>17</dim>
				</port>
			</input>
			<output>
				<port id="1" precision="FP16">
					<dim>1</dim>
					<dim>32</dim>
					<dim>17</dim>
					<dim>17</dim>
				</port>
			</output>
		</layer>
		<layer id="62" name="model_1/model/inception_resnet_v1/Block35_1_Concatenate/PartitionedCall/concat" type="Concat" version="opset1">
			<data axis="1"/>
			<input>
				<port id="0">
					<dim>1</dim>
					<dim>32</dim>
					<dim>17</dim>
					<dim>17</dim>
				</port>
				<port id="1">
					<dim>1</dim>
					<dim>32</dim>
					<dim>17</dim>
					<dim>17</dim>
				</port>
				<port id="2">
					<dim>1</dim>
					<dim>32</dim>
					<dim>17</dim>
					<dim>17</dim>
				</port>
			</input>
			<output>
				<port id="3" precision="FP16">
					<dim>1</dim>
					<dim>96</dim>
					<dim>17</dim>
					<dim>17</dim>
				</port>
			</output>
		</layer>
		<layer id="63" name="model_1/model/inception_resnet_v1/Block35_1_Conv2d_1x1/StatefulPartitionedCall/Conv2D/Transpose60172_const" type="Const" version="opset1">
			<data element_type="f16" offset="1334624" shape="256,96,1,1" size="49152"/>
			<output>
				<port id="1" precision="FP16">
					<dim>256</dim>
					<dim>96</dim>
					<dim>1</dim>
					<dim>1</dim>
				</port>
			</output>
		</layer>
		<layer id="64" name="model_1/model/inception_resnet_v1/Block35_1_Conv2d_1x1/StatefulPartitionedCall/Conv2D" type="Convolution" version="opset1">
			<data auto_pad="same_upper" dilations="1,1" output_padding="0,0" pads_begin="0,0" pads_end="0,0" strides="1,1"/>
			<input>
				<port id="0">
					<dim>1</dim>
					<dim>96</dim>
					<dim>17</dim>
					<dim>17</dim>
				</port>
				<port id="1">
					<dim>256</dim>
					<dim>96</dim>
					<dim>1</dim>
					<dim>1</dim>
				</port>
			</input>
			<output>
				<port id="2" precision="FP16">
					<dim>1</dim>
					<dim>256</dim>
					<dim>17</dim>
					<dim>17</dim>
				</port>
			</output>
		</layer>
		<layer id="65" name="data_add_478564786149378/EltwiseUnsqueeze50807_const" type="Const" version="opset1">
			<data element_type="f16" offset="1383776" shape="1,256,1,1" size="512"/>
			<output>
				<port id="1" precision="FP16">
					<dim>1</dim>
					<dim>256</dim>
					<dim>1</dim>
					<dim>1</dim>
				</port>
			</output>
		</layer>
		<layer id="66" name="model_1/model/inception_resnet_v1/Block35_1_Conv2d_1x1/StatefulPartitionedCall/BiasAdd/Add/Fused_Add_" type="Add" version="opset1">
			<input>
				<port id="0">
					<dim>1</dim>
					<dim>256</dim>
					<dim>17</dim>
					<dim>17</dim>
				</port>
				<port id="1">
					<dim>1</dim>
					<dim>256</dim>
					<dim>1</dim>
					<dim>1</dim>
				</port>
			</input>
			<output>
				<port id="2" precision="FP16">
					<dim>1</dim>
					<dim>256</dim>
					<dim>17</dim>
					<dim>17</dim>
				</port>
			</output>
		</layer>
		<layer id="67" name="model_1/model/inception_resnet_v1/Block35_1_ScaleSum/PartitionedCall/add" type="Add" version="opset1">
			<input>
				<port id="0">
					<dim>1</dim>
					<dim>256</dim>
					<dim>17</dim>
					<dim>17</dim>
				</port>
				<port id="1">
					<dim>1</dim>
					<dim>256</dim>
					<dim>17</dim>
					<dim>17</dim>
				</port>
			</input>
			<output>
				<port id="2" precision="FP16">
					<dim>1</dim>
					<dim>256</dim>
					<dim>17</dim>
					<dim>17</dim>
				</port>
			</output>
		</layer>
		<layer id="68" name="model_1/model/inception_resnet_v1/Block35_1_Activation/PartitionedCall/Relu" type="ReLU" version="opset1">
			<input>
				<port id="0">
					<dim>1</dim>
					<dim>256</dim>
					<dim>17</dim>
					<dim>17</dim>
				</port>
			</input>
			<output>
				<port id="1" precision="FP16">
					<dim>1</dim>
					<dim>256</dim>
					<dim>17</dim>
					<dim>17</dim>
				</port>
			</output>
		</layer>
		<layer id="69" name="model_1/model/inception_resnet_v1/Block35_2_Branch_0_Conv2d_1x1/StatefulPartitionedCall/Conv2D/Transpose60176_const" type="Const" version="opset1">
			<data element_type="f16" offset="1384288" shape="32,256,1,1" size="16384"/>
			<output>
				<port id="1" precision="FP16">
					<dim>32</dim>
					<dim>256</dim>
					<dim>1</dim>
					<dim>1</dim>
				</port>
			</output>
		</layer>
		<layer id="70" name="model_1/model/inception_resnet_v1/Block35_2_Branch_0_Conv2d_1x1/StatefulPartitionedCall/Conv2D" type="Convolution" version="opset1">
			<data auto_pad="same_upper" dilations="1,1" output_padding="0,0" pads_begin="0,0" pads_end="0,0" strides="1,1"/>
			<input>
				<port id="0">
					<dim>1</dim>
					<dim>256</dim>
					<dim>17</dim>
					<dim>17</dim>
				</port>
				<port id="1">
					<dim>32</dim>
					<dim>256</dim>
					<dim>1</dim>
					<dim>1</dim>
				</port>
			</input>
			<output>
				<port id="2" precision="FP16">
					<dim>1</dim>
					<dim>32</dim>
					<dim>17</dim>
					<dim>17</dim>
				</port>
			</output>
		</layer>
		<layer id="71" name="data_add_478644786949380/EltwiseUnsqueeze50815_const" type="Const" version="opset1">
			<data element_type="f16" offset="1400672" shape="1,32,1,1" size="64"/>
			<output>
				<port id="1" precision="FP16">
					<dim>1</dim>
					<dim>32</dim>
					<dim>1</dim>
					<dim>1</dim>
				</port>
			</output>
		</layer>
		<layer id="72" name="model_1/model/inception_resnet_v1/Block35_2_Branch_0_Conv2d_1x1_BatchNorm/StatefulPartitionedCall/FusedBatchNormV3/variance/Fused_Add_" type="Add" version="opset1">
			<input>
				<port id="0">
					<dim>1</dim>
					<dim>32</dim>
					<dim>17</dim>
					<dim>17</dim>
				</port>
				<port id="1">
					<dim>1</dim>
					<dim>32</dim>
					<dim>1</dim>
					<dim>1</dim>
				</port>
			</input>
			<output>
				<port id="2" precision="FP16">
					<dim>1</dim>
					<dim>32</dim>
					<dim>17</dim>
					<dim>17</dim>
				</port>
			</output>
		</layer>
		<layer id="73" name="model_1/model/inception_resnet_v1/Block35_2_Branch_0_Conv2d_1x1_Activation/PartitionedCall/Relu" type="ReLU" version="opset1">
			<input>
				<port id="0">
					<dim>1</dim>
					<dim>32</dim>
					<dim>17</dim>
					<dim>17</dim>
				</port>
			</input>
			<output>
				<port id="1" precision="FP16">
					<dim>1</dim>
					<dim>32</dim>
					<dim>17</dim>
					<dim>17</dim>
				</port>
			</output>
		</layer>
		<layer id="74" name="model_1/model/inception_resnet_v1/Block35_2_Branch_1_Conv2d_0a_1x1/StatefulPartitionedCall/Conv2D/Transpose60180_const" type="Const" version="opset1">
			<data element_type="f16" offset="1400736" shape="32,256,1,1" size="16384"/>
			<output>
				<port id="1" precision="FP16">
					<dim>32</dim>
					<dim>256</dim>
					<dim>1</dim>
					<dim>1</dim>
				</port>
			</output>
		</layer>
		<layer id="75" name="model_1/model/inception_resnet_v1/Block35_2_Branch_1_Conv2d_0a_1x1/StatefulPartitionedCall/Conv2D" type="Convolution" version="opset1">
			<data auto_pad="same_upper" dilations="1,1" output_padding="0,0" pads_begin="0,0" pads_end="0,0" strides="1,1"/>
			<input>
				<port id="0">
					<dim>1</dim>
					<dim>256</dim>
					<dim>17</dim>
					<dim>17</dim>
				</port>
				<port id="1">
					<dim>32</dim>
					<dim>256</dim>
					<dim>1</dim>
					<dim>1</dim>
				</port>
			</input>
			<output>
				<port id="2" precision="FP16">
					<dim>1</dim>
					<dim>32</dim>
					<dim>17</dim>
					<dim>17</dim>
				</port>
			</output>
		</layer>
		<layer id="76" name="data_add_478964790149388/EltwiseUnsqueeze50847_const" type="Const" version="opset1">
			<data element_type="f16" offset="1417120" shape="1,32,1,1" size="64"/>
			<output>
				<port id="1" precision="FP16">
					<dim>1</dim>
					<dim>32</dim>
					<dim>1</dim>
					<dim>1</dim>
				</port>
			</output>
		</layer>
		<layer id="77" name="model_1/model/inception_resnet_v1/Block35_2_Branch_1_Conv2d_0a_1x1_BatchNorm/StatefulPartitionedCall/FusedBatchNormV3/variance/Fused_Add_" type="Add" version="opset1">
			<input>
				<port id="0">
					<dim>1</dim>
					<dim>32</dim>
					<dim>17</dim>
					<dim>17</dim>
				</port>
				<port id="1">
					<dim>1</dim>
					<dim>32</dim>
					<dim>1</dim>
					<dim>1</dim>
				</port>
			</input>
			<output>
				<port id="2" precision="FP16">
					<dim>1</dim>
					<dim>32</dim>
					<dim>17</dim>
					<dim>17</dim>
				</port>
			</output>
		</layer>
		<layer id="78" name="model_1/model/inception_resnet_v1/Block35_2_Branch_1_Conv2d_0a_1x1_Activation/PartitionedCall/Relu" type="ReLU" version="opset1">
			<input>
				<port id="0">
					<dim>1</dim>
					<dim>32</dim>
					<dim>17</dim>
					<dim>17</dim>
				</port>
			</input>
			<output>
				<port id="1" precision="FP16">
					<dim>1</dim>
					<dim>32</dim>
					<dim>17</dim>
					<dim>17</dim>
				</port>
			</output>
		</layer>
		<layer id="79" name="model_1/model/inception_resnet_v1/Block35_2_Branch_1_Conv2d_0b_3x3/StatefulPartitionedCall/Conv2D/Transpose60184_const" type="Const" version="opset1">
			<data element_type="f16" offset="1417184" shape="32,32,3,3" size="18432"/>
			<output>
				<port id="1" precision="FP16">
					<dim>32</dim>
					<dim>32</dim>
					<dim>3</dim>
					<dim>3</dim>
				</port>
			</output>
		</layer>
		<layer id="80" name="model_1/model/inception_resnet_v1/Block35_2_Branch_1_Conv2d_0b_3x3/StatefulPartitionedCall/Conv2D" type="Convolution" version="opset1">
			<data auto_pad="same_upper" dilations="1,1" output_padding="0,0" pads_begin="0,0" pads_end="0,0" strides="1,1"/>
			<input>
				<port id="0">
					<dim>1</dim>
					<dim>32</dim>
					<dim>17</dim>
					<dim>17</dim>
				</port>
				<port id="1">
					<dim>32</dim>
					<dim>32</dim>
					<dim>3</dim>
					<dim>3</dim>
				</port>
			</input>
			<output>
				<port id="2" precision="FP16">
					<dim>1</dim>
					<dim>32</dim>
					<dim>17</dim>
					<dim>17</dim>
				</port>
			</output>
		</layer>
		<layer id="81" name="data_add_479044790949390/EltwiseUnsqueeze50855_const" type="Const" version="opset1">
			<data element_type="f16" offset="1435616" shape="1,32,1,1" size="64"/>
			<output>
				<port id="1" precision="FP16">
					<dim>1</dim>
					<dim>32</dim>
					<dim>1</dim>
					<dim>1</dim>
				</port>
			</output>
		</layer>
		<layer id="82" name="model_1/model/inception_resnet_v1/Block35_2_Branch_1_Conv2d_0b_3x3_BatchNorm/StatefulPartitionedCall/FusedBatchNormV3/variance/Fused_Add_" type="Add" version="opset1">
			<input>
				<port id="0">
					<dim>1</dim>
					<dim>32</dim>
					<dim>17</dim>
					<dim>17</dim>
				</port>
				<port id="1">
					<dim>1</dim>
					<dim>32</dim>
					<dim>1</dim>
					<dim>1</dim>
				</port>
			</input>
			<output>
				<port id="2" precision="FP16">
					<dim>1</dim>
					<dim>32</dim>
					<dim>17</dim>
					<dim>17</dim>
				</port>
			</output>
		</layer>
		<layer id="83" name="model_1/model/inception_resnet_v1/Block35_2_Branch_1_Conv2d_0b_3x3_Activation/PartitionedCall/Relu" type="ReLU" version="opset1">
			<input>
				<port id="0">
					<dim>1</dim>
					<dim>32</dim>
					<dim>17</dim>
					<dim>17</dim>
				</port>
			</input>
			<output>
				<port id="1" precision="FP16">
					<dim>1</dim>
					<dim>32</dim>
					<dim>17</dim>
					<dim>17</dim>
				</port>
			</output>
		</layer>
		<layer id="84" name="model_1/model/inception_resnet_v1/Block35_2_Branch_2_Conv2d_0a_1x1/StatefulPartitionedCall/Conv2D/Transpose60188_const" type="Const" version="opset1">
			<data element_type="f16" offset="1435680" shape="32,256,1,1" size="16384"/>
			<output>
				<port id="1" precision="FP16">
					<dim>32</dim>
					<dim>256</dim>
					<dim>1</dim>
					<dim>1</dim>
				</port>
			</output>
		</layer>
		<layer id="85" name="model_1/model/inception_resnet_v1/Block35_2_Branch_2_Conv2d_0a_1x1/StatefulPartitionedCall/Conv2D" type="Convolution" version="opset1">
			<data auto_pad="same_upper" dilations="1,1" output_padding="0,0" pads_begin="0,0" pads_end="0,0" strides="1,1"/>
			<input>
				<port id="0">
					<dim>1</dim>
					<dim>256</dim>
					<dim>17</dim>
					<dim>17</dim>
				</port>
				<port id="1">
					<dim>32</dim>
					<dim>256</dim>
					<dim>1</dim>
					<dim>1</dim>
				</port>
			</input>
			<output>
				<port id="2" precision="FP16">
					<dim>1</dim>
					<dim>32</dim>
					<dim>17</dim>
					<dim>17</dim>
				</port>
			</output>
		</layer>
		<layer id="86" name="data_add_478724787749382/EltwiseUnsqueeze50823_const" type="Const" version="opset1">
			<data element_type="f16" offset="1452064" shape="1,32,1,1" size="64"/>
			<output>
				<port id="1" precision="FP16">
					<dim>1</dim>
					<dim>32</dim>
					<dim>1</dim>
					<dim>1</dim>
				</port>
			</output>
		</layer>
		<layer id="87" name="model_1/model/inception_resnet_v1/Block35_2_Branch_2_Conv2d_0a_1x1_BatchNorm/StatefulPartitionedCall/FusedBatchNormV3/variance/Fused_Add_" type="Add" version="opset1">
			<input>
				<port id="0">
					<dim>1</dim>
					<dim>32</dim>
					<dim>17</dim>
					<dim>17</dim>
				</port>
				<port id="1">
					<dim>1</dim>
					<dim>32</dim>
					<dim>1</dim>
					<dim>1</dim>
				</port>
			</input>
			<output>
				<port id="2" precision="FP16">
					<dim>1</dim>
					<dim>32</dim>
					<dim>17</dim>
					<dim>17</dim>
				</port>
			</output>
		</layer>
		<layer id="88" name="model_1/model/inception_resnet_v1/Block35_2_Branch_2_Conv2d_0a_1x1_Activation/PartitionedCall/Relu" type="ReLU" version="opset1">
			<input>
				<port id="0">
					<dim>1</dim>
					<dim>32</dim>
					<dim>17</dim>
					<dim>17</dim>
				</port>
			</input>
			<output>
				<port id="1" precision="FP16">
					<dim>1</dim>
					<dim>32</dim>
					<dim>17</dim>
					<dim>17</dim>
				</port>
			</output>
		</layer>
		<layer id="89" name="model_1/model/inception_resnet_v1/Block35_2_Branch_2_Conv2d_0b_3x3/StatefulPartitionedCall/Conv2D/Transpose60192_const" type="Const" version="opset1">
			<data element_type="f16" offset="1452128" shape="32,32,3,3" size="18432"/>
			<output>
				<port id="1" precision="FP16">
					<dim>32</dim>
					<dim>32</dim>
					<dim>3</dim>
					<dim>3</dim>
				</port>
			</output>
		</layer>
		<layer id="90" name="model_1/model/inception_resnet_v1/Block35_2_Branch_2_Conv2d_0b_3x3/StatefulPartitionedCall/Conv2D" type="Convolution" version="opset1">
			<data auto_pad="same_upper" dilations="1,1" output_padding="0,0" pads_begin="0,0" pads_end="0,0" strides="1,1"/>
			<input>
				<port id="0">
					<dim>1</dim>
					<dim>32</dim>
					<dim>17</dim>
					<dim>17</dim>
				</port>
				<port id="1">
					<dim>32</dim>
					<dim>32</dim>
					<dim>3</dim>
					<dim>3</dim>
				</port>
			</input>
			<output>
				<port id="2" precision="FP16">
					<dim>1</dim>
					<dim>32</dim>
					<dim>17</dim>
					<dim>17</dim>
				</port>
			</output>
		</layer>
		<layer id="91" name="data_add_478804788549384/EltwiseUnsqueeze50831_const" type="Const" version="opset1">
			<data element_type="f16" offset="1470560" shape="1,32,1,1" size="64"/>
			<output>
				<port id="1" precision="FP16">
					<dim>1</dim>
					<dim>32</dim>
					<dim>1</dim>
					<dim>1</dim>
				</port>
			</output>
		</layer>
		<layer id="92" name="model_1/model/inception_resnet_v1/Block35_2_Branch_2_Conv2d_0b_3x3_BatchNorm/StatefulPartitionedCall/FusedBatchNormV3/variance/Fused_Add_" type="Add" version="opset1">
			<input>
				<port id="0">
					<dim>1</dim>
					<dim>32</dim>
					<dim>17</dim>
					<dim>17</dim>
				</port>
				<port id="1">
					<dim>1</dim>
					<dim>32</dim>
					<dim>1</dim>
					<dim>1</dim>
				</port>
			</input>
			<output>
				<port id="2" precision="FP16">
					<dim>1</dim>
					<dim>32</dim>
					<dim>17</dim>
					<dim>17</dim>
				</port>
			</output>
		</layer>
		<layer id="93" name="model_1/model/inception_resnet_v1/Block35_2_Branch_2_Conv2d_0b_3x3_Activation/PartitionedCall/Relu" type="ReLU" version="opset1">
			<input>
				<port id="0">
					<dim>1</dim>
					<dim>32</dim>
					<dim>17</dim>
					<dim>17</dim>
				</port>
			</input>
			<output>
				<port id="1" precision="FP16">
					<dim>1</dim>
					<dim>32</dim>
					<dim>17</dim>
					<dim>17</dim>
				</port>
			</output>
		</layer>
		<layer id="94" name="model_1/model/inception_resnet_v1/Block35_2_Branch_2_Conv2d_0c_3x3/StatefulPartitionedCall/Conv2D/Transpose60196_const" type="Const" version="opset1">
			<data element_type="f16" offset="1470624" shape="32,32,3,3" size="18432"/>
			<output>
				<port id="1" precision="FP16">
					<dim>32</dim>
					<dim>32</dim>
					<dim>3</dim>
					<dim>3</dim>
				</port>
			</output>
		</layer>
		<layer id="95" name="model_1/model/inception_resnet_v1/Block35_2_Branch_2_Conv2d_0c_3x3/StatefulPartitionedCall/Conv2D" type="Convolution" version="opset1">
			<data auto_pad="same_upper" dilations="1,1" output_padding="0,0" pads_begin="0,0" pads_end="0,0" strides="1,1"/>
			<input>
				<port id="0">
					<dim>1</dim>
					<dim>32</dim>
					<dim>17</dim>
					<dim>17</dim>
				</port>
				<port id="1">
					<dim>32</dim>
					<dim>32</dim>
					<dim>3</dim>
					<dim>3</dim>
				</port>
			</input>
			<output>
				<port id="2" precision="FP16">
					<dim>1</dim>
					<dim>32</dim>
					<dim>17</dim>
					<dim>17</dim>
				</port>
			</output>
		</layer>
		<layer id="96" name="data_add_478884789349386/EltwiseUnsqueeze50839_const" type="Const" version="opset1">
			<data element_type="f16" offset="1489056" shape="1,32,1,1" size="64"/>
			<output>
				<port id="1" precision="FP16">
					<dim>1</dim>
					<dim>32</dim>
					<dim>1</dim>
					<dim>1</dim>
				</port>
			</output>
		</layer>
		<layer id="97" name="model_1/model/inception_resnet_v1/Block35_2_Branch_2_Conv2d_0c_3x3_BatchNorm/StatefulPartitionedCall/FusedBatchNormV3/variance/Fused_Add_" type="Add" version="opset1">
			<input>
				<port id="0">
					<dim>1</dim>
					<dim>32</dim>
					<dim>17</dim>
					<dim>17</dim>
				</port>
				<port id="1">
					<dim>1</dim>
					<dim>32</dim>
					<dim>1</dim>
					<dim>1</dim>
				</port>
			</input>
			<output>
				<port id="2" precision="FP16">
					<dim>1</dim>
					<dim>32</dim>
					<dim>17</dim>
					<dim>17</dim>
				</port>
			</output>
		</layer>
		<layer id="98" name="model_1/model/inception_resnet_v1/Block35_2_Branch_2_Conv2d_0c_3x3_Activation/PartitionedCall/Relu" type="ReLU" version="opset1">
			<input>
				<port id="0">
					<dim>1</dim>
					<dim>32</dim>
					<dim>17</dim>
					<dim>17</dim>
				</port>
			</input>
			<output>
				<port id="1" precision="FP16">
					<dim>1</dim>
					<dim>32</dim>
					<dim>17</dim>
					<dim>17</dim>
				</port>
			</output>
		</layer>
		<layer id="99" name="model_1/model/inception_resnet_v1/Block35_2_Concatenate/PartitionedCall/concat" type="Concat" version="opset1">
			<data axis="1"/>
			<input>
				<port id="0">
					<dim>1</dim>
					<dim>32</dim>
					<dim>17</dim>
					<dim>17</dim>
				</port>
				<port id="1">
					<dim>1</dim>
					<dim>32</dim>
					<dim>17</dim>
					<dim>17</dim>
				</port>
				<port id="2">
					<dim>1</dim>
					<dim>32</dim>
					<dim>17</dim>
					<dim>17</dim>
				</port>
			</input>
			<output>
				<port id="3" precision="FP16">
					<dim>1</dim>
					<dim>96</dim>
					<dim>17</dim>
					<dim>17</dim>
				</port>
			</output>
		</layer>
		<layer id="100" name="model_1/model/inception_resnet_v1/Block35_2_Conv2d_1x1/StatefulPartitionedCall/Conv2D/Transpose60200_const" type="Const" version="opset1">
			<data element_type="f16" offset="1489120" shape="256,96,1,1" size="49152"/>
			<output>
				<port id="1" precision="FP16">
					<dim>256</dim>
					<dim>96</dim>
					<dim>1</dim>
					<dim>1</dim>
				</port>
			</output>
		</layer>
		<layer id="101" name="model_1/model/inception_resnet_v1/Block35_2_Conv2d_1x1/StatefulPartitionedCall/Conv2D" type="Convolution" version="opset1">
			<data auto_pad="same_upper" dilations="1,1" output_padding="0,0" pads_begin="0,0" pads_end="0,0" strides="1,1"/>
			<input>
				<port id="0">
					<dim>1</dim>
					<dim>96</dim>
					<dim>17</dim>
					<dim>17</dim>
				</port>
				<port id="1">
					<dim>256</dim>
					<dim>96</dim>
					<dim>1</dim>
					<dim>1</dim>
				</port>
			</input>
			<output>
				<port id="2" precision="FP16">
					<dim>1</dim>
					<dim>256</dim>
					<dim>17</dim>
					<dim>17</dim>
				</port>
			</output>
		</layer>
		<layer id="102" name="data_add_479124791749392/EltwiseUnsqueeze50863_const" type="Const" version="opset1">
			<data element_type="f16" offset="1538272" shape="1,256,1,1" size="512"/>
			<output>
				<port id="1" precision="FP16">
					<dim>1</dim>
					<dim>256</dim>
					<dim>1</dim>
					<dim>1</dim>
				</port>
			</output>
		</layer>
		<layer id="103" name="model_1/model/inception_resnet_v1/Block35_2_Conv2d_1x1/StatefulPartitionedCall/BiasAdd/Add/Fused_Add_" type="Add" version="opset1">
			<input>
				<port id="0">
					<dim>1</dim>
					<dim>256</dim>
					<dim>17</dim>
					<dim>17</dim>
				</port>
				<port id="1">
					<dim>1</dim>
					<dim>256</dim>
					<dim>1</dim>
					<dim>1</dim>
				</port>
			</input>
			<output>
				<port id="2" precision="FP16">
					<dim>1</dim>
					<dim>256</dim>
					<dim>17</dim>
					<dim>17</dim>
				</port>
			</output>
		</layer>
		<layer id="104" name="model_1/model/inception_resnet_v1/Block35_2_ScaleSum/PartitionedCall/add" type="Add" version="opset1">
			<input>
				<port id="0">
					<dim>1</dim>
					<dim>256</dim>
					<dim>17</dim>
					<dim>17</dim>
				</port>
				<port id="1">
					<dim>1</dim>
					<dim>256</dim>
					<dim>17</dim>
					<dim>17</dim>
				</port>
			</input>
			<output>
				<port id="2" precision="FP16">
					<dim>1</dim>
					<dim>256</dim>
					<dim>17</dim>
					<dim>17</dim>
				</port>
			</output>
		</layer>
		<layer id="105" name="model_1/model/inception_resnet_v1/Block35_2_Activation/PartitionedCall/Relu" type="ReLU" version="opset1">
			<input>
				<port id="0">
					<dim>1</dim>
					<dim>256</dim>
					<dim>17</dim>
					<dim>17</dim>
				</port>
			</input>
			<output>
				<port id="1" precision="FP16">
					<dim>1</dim>
					<dim>256</dim>
					<dim>17</dim>
					<dim>17</dim>
				</port>
			</output>
		</layer>
		<layer id="106" name="model_1/model/inception_resnet_v1/Block35_3_Branch_0_Conv2d_1x1/StatefulPartitionedCall/Conv2D/Transpose60204_const" type="Const" version="opset1">
			<data element_type="f16" offset="1538784" shape="32,256,1,1" size="16384"/>
			<output>
				<port id="1" precision="FP16">
					<dim>32</dim>
					<dim>256</dim>
					<dim>1</dim>
					<dim>1</dim>
				</port>
			</output>
		</layer>
		<layer id="107" name="model_1/model/inception_resnet_v1/Block35_3_Branch_0_Conv2d_1x1/StatefulPartitionedCall/Conv2D" type="Convolution" version="opset1">
			<data auto_pad="same_upper" dilations="1,1" output_padding="0,0" pads_begin="0,0" pads_end="0,0" strides="1,1"/>
			<input>
				<port id="0">
					<dim>1</dim>
					<dim>256</dim>
					<dim>17</dim>
					<dim>17</dim>
				</port>
				<port id="1">
					<dim>32</dim>
					<dim>256</dim>
					<dim>1</dim>
					<dim>1</dim>
				</port>
			</input>
			<output>
				<port id="2" precision="FP16">
					<dim>1</dim>
					<dim>32</dim>
					<dim>17</dim>
					<dim>17</dim>
				</port>
			</output>
		</layer>
		<layer id="108" name="data_add_479444794949400/EltwiseUnsqueeze50895_const" type="Const" version="opset1">
			<data element_type="f16" offset="1555168" shape="1,32,1,1" size="64"/>
			<output>
				<port id="1" precision="FP16">
					<dim>1</dim>
					<dim>32</dim>
					<dim>1</dim>
					<dim>1</dim>
				</port>
			</output>
		</layer>
		<layer id="109" name="model_1/model/inception_resnet_v1/Block35_3_Branch_0_Conv2d_1x1_BatchNorm/StatefulPartitionedCall/FusedBatchNormV3/variance/Fused_Add_" type="Add" version="opset1">
			<input>
				<port id="0">
					<dim>1</dim>
					<dim>32</dim>
					<dim>17</dim>
					<dim>17</dim>
				</port>
				<port id="1">
					<dim>1</dim>
					<dim>32</dim>
					<dim>1</dim>
					<dim>1</dim>
				</port>
			</input>
			<output>
				<port id="2" precision="FP16">
					<dim>1</dim>
					<dim>32</dim>
					<dim>17</dim>
					<dim>17</dim>
				</port>
			</output>
		</layer>
		<layer id="110" name="model_1/model/inception_resnet_v1/Block35_3_Branch_0_Conv2d_1x1_Activation/PartitionedCall/Relu" type="ReLU" version="opset1">
			<input>
				<port id="0">
					<dim>1</dim>
					<dim>32</dim>
					<dim>17</dim>
					<dim>17</dim>
				</port>
			</input>
			<output>
				<port id="1" precision="FP16">
					<dim>1</dim>
					<dim>32</dim>
					<dim>17</dim>
					<dim>17</dim>
				</port>
			</output>
		</layer>
		<layer id="111" name="model_1/model/inception_resnet_v1/Block35_3_Branch_1_Conv2d_0a_1x1/StatefulPartitionedCall/Conv2D/Transpose60208_const" type="Const" version="opset1">
			<data element_type="f16" offset="1555232" shape="32,256,1,1" size="16384"/>
			<output>
				<port id="1" precision="FP16">
					<dim>32</dim>
					<dim>256</dim>
					<dim>1</dim>
					<dim>1</dim>
				</port>
			</output>
		</layer>
		<layer id="112" name="model_1/model/inception_resnet_v1/Block35_3_Branch_1_Conv2d_0a_1x1/StatefulPartitionedCall/Conv2D" type="Convolution" version="opset1">
			<data auto_pad="same_upper" dilations="1,1" output_padding="0,0" pads_begin="0,0" pads_end="0,0" strides="1,1"/>
			<input>
				<port id="0">
					<dim>1</dim>
					<dim>256</dim>
					<dim>17</dim>
					<dim>17</dim>
				</port>
				<port id="1">
					<dim>32</dim>
					<dim>256</dim>
					<dim>1</dim>
					<dim>1</dim>
				</port>
			</input>
			<output>
				<port id="2" precision="FP16">
					<dim>1</dim>
					<dim>32</dim>
					<dim>17</dim>
					<dim>17</dim>
				</port>
			</output>
		</layer>
		<layer id="113" name="data_add_479524795749402/EltwiseUnsqueeze50903_const" type="Const" version="opset1">
			<data element_type="f16" offset="1571616" shape="1,32,1,1" size="64"/>
			<output>
				<port id="1" precision="FP16">
					<dim>1</dim>
					<dim>32</dim>
					<dim>1</dim>
					<dim>1</dim>
				</port>
			</output>
		</layer>
		<layer id="114" name="model_1/model/inception_resnet_v1/Block35_3_Branch_1_Conv2d_0a_1x1_BatchNorm/StatefulPartitionedCall/FusedBatchNormV3/variance/Fused_Add_" type="Add" version="opset1">
			<input>
				<port id="0">
					<dim>1</dim>
					<dim>32</dim>
					<dim>17</dim>
					<dim>17</dim>
				</port>
				<port id="1">
					<dim>1</dim>
					<dim>32</dim>
					<dim>1</dim>
					<dim>1</dim>
				</port>
			</input>
			<output>
				<port id="2" precision="FP16">
					<dim>1</dim>
					<dim>32</dim>
					<dim>17</dim>
					<dim>17</dim>
				</port>
			</output>
		</layer>
		<layer id="115" name="model_1/model/inception_resnet_v1/Block35_3_Branch_1_Conv2d_0a_1x1_Activation/PartitionedCall/Relu" type="ReLU" version="opset1">
			<input>
				<port id="0">
					<dim>1</dim>
					<dim>32</dim>
					<dim>17</dim>
					<dim>17</dim>
				</port>
			</input>
			<output>
				<port id="1" precision="FP16">
					<dim>1</dim>
					<dim>32</dim>
					<dim>17</dim>
					<dim>17</dim>
				</port>
			</output>
		</layer>
		<layer id="116" name="model_1/model/inception_resnet_v1/Block35_3_Branch_1_Conv2d_0b_3x3/StatefulPartitionedCall/Conv2D/Transpose60212_const" type="Const" version="opset1">
			<data element_type="f16" offset="1571680" shape="32,32,3,3" size="18432"/>
			<output>
				<port id="1" precision="FP16">
					<dim>32</dim>
					<dim>32</dim>
					<dim>3</dim>
					<dim>3</dim>
				</port>
			</output>
		</layer>
		<layer id="117" name="model_1/model/inception_resnet_v1/Block35_3_Branch_1_Conv2d_0b_3x3/StatefulPartitionedCall/Conv2D" type="Convolution" version="opset1">
			<data auto_pad="same_upper" dilations="1,1" output_padding="0,0" pads_begin="0,0" pads_end="0,0" strides="1,1"/>
			<input>
				<port id="0">
					<dim>1</dim>
					<dim>32</dim>
					<dim>17</dim>
					<dim>17</dim>
				</port>
				<port id="1">
					<dim>32</dim>
					<dim>32</dim>
					<dim>3</dim>
					<dim>3</dim>
				</port>
			</input>
			<output>
				<port id="2" precision="FP16">
					<dim>1</dim>
					<dim>32</dim>
					<dim>17</dim>
					<dim>17</dim>
				</port>
			</output>
		</layer>
		<layer id="118" name="data_add_479604796549404/EltwiseUnsqueeze50911_const" type="Const" version="opset1">
			<data element_type="f16" offset="1590112" shape="1,32,1,1" size="64"/>
			<output>
				<port id="1" precision="FP16">
					<dim>1</dim>
					<dim>32</dim>
					<dim>1</dim>
					<dim>1</dim>
				</port>
			</output>
		</layer>
		<layer id="119" name="model_1/model/inception_resnet_v1/Block35_3_Branch_1_Conv2d_0b_3x3_BatchNorm/StatefulPartitionedCall/FusedBatchNormV3/variance/Fused_Add_" type="Add" version="opset1">
			<input>
				<port id="0">
					<dim>1</dim>
					<dim>32</dim>
					<dim>17</dim>
					<dim>17</dim>
				</port>
				<port id="1">
					<dim>1</dim>
					<dim>32</dim>
					<dim>1</dim>
					<dim>1</dim>
				</port>
			</input>
			<output>
				<port id="2" precision="FP16">
					<dim>1</dim>
					<dim>32</dim>
					<dim>17</dim>
					<dim>17</dim>
				</port>
			</output>
		</layer>
		<layer id="120" name="model_1/model/inception_resnet_v1/Block35_3_Branch_1_Conv2d_0b_3x3_Activation/PartitionedCall/Relu" type="ReLU" version="opset1">
			<input>
				<port id="0">
					<dim>1</dim>
					<dim>32</dim>
					<dim>17</dim>
					<dim>17</dim>
				</port>
			</input>
			<output>
				<port id="1" precision="FP16">
					<dim>1</dim>
					<dim>32</dim>
					<dim>17</dim>
					<dim>17</dim>
				</port>
			</output>
		</layer>
		<layer id="121" name="model_1/model/inception_resnet_v1/Block35_3_Branch_2_Conv2d_0a_1x1/StatefulPartitionedCall/Conv2D/Transpose60216_const" type="Const" version="opset1">
			<data element_type="f16" offset="1590176" shape="32,256,1,1" size="16384"/>
			<output>
				<port id="1" precision="FP16">
					<dim>32</dim>
					<dim>256</dim>
					<dim>1</dim>
					<dim>1</dim>
				</port>
			</output>
		</layer>
		<layer id="122" name="model_1/model/inception_resnet_v1/Block35_3_Branch_2_Conv2d_0a_1x1/StatefulPartitionedCall/Conv2D" type="Convolution" version="opset1">
			<data auto_pad="same_upper" dilations="1,1" output_padding="0,0" pads_begin="0,0" pads_end="0,0" strides="1,1"/>
			<input>
				<port id="0">
					<dim>1</dim>
					<dim>256</dim>
					<dim>17</dim>
					<dim>17</dim>
				</port>
				<port id="1">
					<dim>32</dim>
					<dim>256</dim>
					<dim>1</dim>
					<dim>1</dim>
				</port>
			</input>
			<output>
				<port id="2" precision="FP16">
					<dim>1</dim>
					<dim>32</dim>
					<dim>17</dim>
					<dim>17</dim>
				</port>
			</output>
		</layer>
		<layer id="123" name="data_add_479204792549394/EltwiseUnsqueeze50871_const" type="Const" version="opset1">
			<data element_type="f16" offset="1606560" shape="1,32,1,1" size="64"/>
			<output>
				<port id="1" precision="FP16">
					<dim>1</dim>
					<dim>32</dim>
					<dim>1</dim>
					<dim>1</dim>
				</port>
			</output>
		</layer>
		<layer id="124" name="model_1/model/inception_resnet_v1/Block35_3_Branch_2_Conv2d_0a_1x1_BatchNorm/StatefulPartitionedCall/FusedBatchNormV3/variance/Fused_Add_" type="Add" version="opset1">
			<input>
				<port id="0">
					<dim>1</dim>
					<dim>32</dim>
					<dim>17</dim>
					<dim>17</dim>
				</port>
				<port id="1">
					<dim>1</dim>
					<dim>32</dim>
					<dim>1</dim>
					<dim>1</dim>
				</port>
			</input>
			<output>
				<port id="2" precision="FP16">
					<dim>1</dim>
					<dim>32</dim>
					<dim>17</dim>
					<dim>17</dim>
				</port>
			</output>
		</layer>
		<layer id="125" name="model_1/model/inception_resnet_v1/Block35_3_Branch_2_Conv2d_0a_1x1_Activation/PartitionedCall/Relu" type="ReLU" version="opset1">
			<input>
				<port id="0">
					<dim>1</dim>
					<dim>32</dim>
					<dim>17</dim>
					<dim>17</dim>
				</port>
			</input>
			<output>
				<port id="1" precision="FP16">
					<dim>1</dim>
					<dim>32</dim>
					<dim>17</dim>
					<dim>17</dim>
				</port>
			</output>
		</layer>
		<layer id="126" name="model_1/model/inception_resnet_v1/Block35_3_Branch_2_Conv2d_0b_3x3/StatefulPartitionedCall/Conv2D/Transpose60220_const" type="Const" version="opset1">
			<data element_type="f16" offset="1606624" shape="32,32,3,3" size="18432"/>
			<output>
				<port id="1" precision="FP16">
					<dim>32</dim>
					<dim>32</dim>
					<dim>3</dim>
					<dim>3</dim>
				</port>
			</output>
		</layer>
		<layer id="127" name="model_1/model/inception_resnet_v1/Block35_3_Branch_2_Conv2d_0b_3x3/StatefulPartitionedCall/Conv2D" type="Convolution" version="opset1">
			<data auto_pad="same_upper" dilations="1,1" output_padding="0,0" pads_begin="0,0" pads_end="0,0" strides="1,1"/>
			<input>
				<port id="0">
					<dim>1</dim>
					<dim>32</dim>
					<dim>17</dim>
					<dim>17</dim>
				</port>
				<port id="1">
					<dim>32</dim>
					<dim>32</dim>
					<dim>3</dim>
					<dim>3</dim>
				</port>
			</input>
			<output>
				<port id="2" precision="FP16">
					<dim>1</dim>
					<dim>32</dim>
					<dim>17</dim>
					<dim>17</dim>
				</port>
			</output>
		</layer>
		<layer id="128" name="data_add_479284793349396/EltwiseUnsqueeze50879_const" type="Const" version="opset1">
			<data element_type="f16" offset="1625056" shape="1,32,1,1" size="64"/>
			<output>
				<port id="1" precision="FP16">
					<dim>1</dim>
					<dim>32</dim>
					<dim>1</dim>
					<dim>1</dim>
				</port>
			</output>
		</layer>
		<layer id="129" name="model_1/model/inception_resnet_v1/Block35_3_Branch_2_Conv2d_0b_3x3_BatchNorm/StatefulPartitionedCall/FusedBatchNormV3/variance/Fused_Add_" type="Add" version="opset1">
			<input>
				<port id="0">
					<dim>1</dim>
					<dim>32</dim>
					<dim>17</dim>
					<dim>17</dim>
				</port>
				<port id="1">
					<dim>1</dim>
					<dim>32</dim>
					<dim>1</dim>
					<dim>1</dim>
				</port>
			</input>
			<output>
				<port id="2" precision="FP16">
					<dim>1</dim>
					<dim>32</dim>
					<dim>17</dim>
					<dim>17</dim>
				</port>
			</output>
		</layer>
		<layer id="130" name="model_1/model/inception_resnet_v1/Block35_3_Branch_2_Conv2d_0b_3x3_Activation/PartitionedCall/Relu" type="ReLU" version="opset1">
			<input>
				<port id="0">
					<dim>1</dim>
					<dim>32</dim>
					<dim>17</dim>
					<dim>17</dim>
				</port>
			</input>
			<output>
				<port id="1" precision="FP16">
					<dim>1</dim>
					<dim>32</dim>
					<dim>17</dim>
					<dim>17</dim>
				</port>
			</output>
		</layer>
		<layer id="131" name="model_1/model/inception_resnet_v1/Block35_3_Branch_2_Conv2d_0c_3x3/StatefulPartitionedCall/Conv2D/Transpose60224_const" type="Const" version="opset1">
			<data element_type="f16" offset="1625120" shape="32,32,3,3" size="18432"/>
			<output>
				<port id="1" precision="FP16">
					<dim>32</dim>
					<dim>32</dim>
					<dim>3</dim>
					<dim>3</dim>
				</port>
			</output>
		</layer>
		<layer id="132" name="model_1/model/inception_resnet_v1/Block35_3_Branch_2_Conv2d_0c_3x3/StatefulPartitionedCall/Conv2D" type="Convolution" version="opset1">
			<data auto_pad="same_upper" dilations="1,1" output_padding="0,0" pads_begin="0,0" pads_end="0,0" strides="1,1"/>
			<input>
				<port id="0">
					<dim>1</dim>
					<dim>32</dim>
					<dim>17</dim>
					<dim>17</dim>
				</port>
				<port id="1">
					<dim>32</dim>
					<dim>32</dim>
					<dim>3</dim>
					<dim>3</dim>
				</port>
			</input>
			<output>
				<port id="2" precision="FP16">
					<dim>1</dim>
					<dim>32</dim>
					<dim>17</dim>
					<dim>17</dim>
				</port>
			</output>
		</layer>
		<layer id="133" name="data_add_479364794149398/EltwiseUnsqueeze50887_const" type="Const" version="opset1">
			<data element_type="f16" offset="1643552" shape="1,32,1,1" size="64"/>
			<output>
				<port id="1" precision="FP16">
					<dim>1</dim>
					<dim>32</dim>
					<dim>1</dim>
					<dim>1</dim>
				</port>
			</output>
		</layer>
		<layer id="134" name="model_1/model/inception_resnet_v1/Block35_3_Branch_2_Conv2d_0c_3x3_BatchNorm/StatefulPartitionedCall/FusedBatchNormV3/variance/Fused_Add_" type="Add" version="opset1">
			<input>
				<port id="0">
					<dim>1</dim>
					<dim>32</dim>
					<dim>17</dim>
					<dim>17</dim>
				</port>
				<port id="1">
					<dim>1</dim>
					<dim>32</dim>
					<dim>1</dim>
					<dim>1</dim>
				</port>
			</input>
			<output>
				<port id="2" precision="FP16">
					<dim>1</dim>
					<dim>32</dim>
					<dim>17</dim>
					<dim>17</dim>
				</port>
			</output>
		</layer>
		<layer id="135" name="model_1/model/inception_resnet_v1/Block35_3_Branch_2_Conv2d_0c_3x3_Activation/PartitionedCall/Relu" type="ReLU" version="opset1">
			<input>
				<port id="0">
					<dim>1</dim>
					<dim>32</dim>
					<dim>17</dim>
					<dim>17</dim>
				</port>
			</input>
			<output>
				<port id="1" precision="FP16">
					<dim>1</dim>
					<dim>32</dim>
					<dim>17</dim>
					<dim>17</dim>
				</port>
			</output>
		</layer>
		<layer id="136" name="model_1/model/inception_resnet_v1/Block35_3_Concatenate/PartitionedCall/concat" type="Concat" version="opset1">
			<data axis="1"/>
			<input>
				<port id="0">
					<dim>1</dim>
					<dim>32</dim>
					<dim>17</dim>
					<dim>17</dim>
				</port>
				<port id="1">
					<dim>1</dim>
					<dim>32</dim>
					<dim>17</dim>
					<dim>17</dim>
				</port>
				<port id="2">
					<dim>1</dim>
					<dim>32</dim>
					<dim>17</dim>
					<dim>17</dim>
				</port>
			</input>
			<output>
				<port id="3" precision="FP16">
					<dim>1</dim>
					<dim>96</dim>
					<dim>17</dim>
					<dim>17</dim>
				</port>
			</output>
		</layer>
		<layer id="137" name="model_1/model/inception_resnet_v1/Block35_3_Conv2d_1x1/StatefulPartitionedCall/Conv2D/Transpose60228_const" type="Const" version="opset1">
			<data element_type="f16" offset="1643616" shape="256,96,1,1" size="49152"/>
			<output>
				<port id="1" precision="FP16">
					<dim>256</dim>
					<dim>96</dim>
					<dim>1</dim>
					<dim>1</dim>
				</port>
			</output>
		</layer>
		<layer id="138" name="model_1/model/inception_resnet_v1/Block35_3_Conv2d_1x1/StatefulPartitionedCall/Conv2D" type="Convolution" version="opset1">
			<data auto_pad="same_upper" dilations="1,1" output_padding="0,0" pads_begin="0,0" pads_end="0,0" strides="1,1"/>
			<input>
				<port id="0">
					<dim>1</dim>
					<dim>96</dim>
					<dim>17</dim>
					<dim>17</dim>
				</port>
				<port id="1">
					<dim>256</dim>
					<dim>96</dim>
					<dim>1</dim>
					<dim>1</dim>
				</port>
			</input>
			<output>
				<port id="2" precision="FP16">
					<dim>1</dim>
					<dim>256</dim>
					<dim>17</dim>
					<dim>17</dim>
				</port>
			</output>
		</layer>
		<layer id="139" name="data_add_479684797349406/EltwiseUnsqueeze50919_const" type="Const" version="opset1">
			<data element_type="f16" offset="1692768" shape="1,256,1,1" size="512"/>
			<output>
				<port id="1" precision="FP16">
					<dim>1</dim>
					<dim>256</dim>
					<dim>1</dim>
					<dim>1</dim>
				</port>
			</output>
		</layer>
		<layer id="140" name="model_1/model/inception_resnet_v1/Block35_3_Conv2d_1x1/StatefulPartitionedCall/BiasAdd/Add/Fused_Add_" type="Add" version="opset1">
			<input>
				<port id="0">
					<dim>1</dim>
					<dim>256</dim>
					<dim>17</dim>
					<dim>17</dim>
				</port>
				<port id="1">
					<dim>1</dim>
					<dim>256</dim>
					<dim>1</dim>
					<dim>1</dim>
				</port>
			</input>
			<output>
				<port id="2" precision="FP16">
					<dim>1</dim>
					<dim>256</dim>
					<dim>17</dim>
					<dim>17</dim>
				</port>
			</output>
		</layer>
		<layer id="141" name="model_1/model/inception_resnet_v1/Block35_3_ScaleSum/PartitionedCall/add" type="Add" version="opset1">
			<input>
				<port id="0">
					<dim>1</dim>
					<dim>256</dim>
					<dim>17</dim>
					<dim>17</dim>
				</port>
				<port id="1">
					<dim>1</dim>
					<dim>256</dim>
					<dim>17</dim>
					<dim>17</dim>
				</port>
			</input>
			<output>
				<port id="2" precision="FP16">
					<dim>1</dim>
					<dim>256</dim>
					<dim>17</dim>
					<dim>17</dim>
				</port>
			</output>
		</layer>
		<layer id="142" name="model_1/model/inception_resnet_v1/Block35_3_Activation/PartitionedCall/Relu" type="ReLU" version="opset1">
			<input>
				<port id="0">
					<dim>1</dim>
					<dim>256</dim>
					<dim>17</dim>
					<dim>17</dim>
				</port>
			</input>
			<output>
				<port id="1" precision="FP16">
					<dim>1</dim>
					<dim>256</dim>
					<dim>17</dim>
					<dim>17</dim>
				</port>
			</output>
		</layer>
		<layer id="143" name="model_1/model/inception_resnet_v1/Block35_4_Branch_0_Conv2d_1x1/StatefulPartitionedCall/Conv2D/Transpose60232_const" type="Const" version="opset1">
			<data element_type="f16" offset="1693280" shape="32,256,1,1" size="16384"/>
			<output>
				<port id="1" precision="FP16">
					<dim>32</dim>
					<dim>256</dim>
					<dim>1</dim>
					<dim>1</dim>
				</port>
			</output>
		</layer>
		<layer id="144" name="model_1/model/inception_resnet_v1/Block35_4_Branch_0_Conv2d_1x1/StatefulPartitionedCall/Conv2D" type="Convolution" version="opset1">
			<data auto_pad="same_upper" dilations="1,1" output_padding="0,0" pads_begin="0,0" pads_end="0,0" strides="1,1"/>
			<input>
				<port id="0">
					<dim>1</dim>
					<dim>256</dim>
					<dim>17</dim>
					<dim>17</dim>
				</port>
				<port id="1">
					<dim>32</dim>
					<dim>256</dim>
					<dim>1</dim>
					<dim>1</dim>
				</port>
			</input>
			<output>
				<port id="2" precision="FP16">
					<dim>1</dim>
					<dim>32</dim>
					<dim>17</dim>
					<dim>17</dim>
				</port>
			</output>
		</layer>
		<layer id="145" name="data_add_479764798149408/EltwiseUnsqueeze50927_const" type="Const" version="opset1">
			<data element_type="f16" offset="1709664" shape="1,32,1,1" size="64"/>
			<output>
				<port id="1" precision="FP16">
					<dim>1</dim>
					<dim>32</dim>
					<dim>1</dim>
					<dim>1</dim>
				</port>
			</output>
		</layer>
		<layer id="146" name="model_1/model/inception_resnet_v1/Block35_4_Branch_0_Conv2d_1x1_BatchNorm/StatefulPartitionedCall/FusedBatchNormV3/variance/Fused_Add_" type="Add" version="opset1">
			<input>
				<port id="0">
					<dim>1</dim>
					<dim>32</dim>
					<dim>17</dim>
					<dim>17</dim>
				</port>
				<port id="1">
					<dim>1</dim>
					<dim>32</dim>
					<dim>1</dim>
					<dim>1</dim>
				</port>
			</input>
			<output>
				<port id="2" precision="FP16">
					<dim>1</dim>
					<dim>32</dim>
					<dim>17</dim>
					<dim>17</dim>
				</port>
			</output>
		</layer>
		<layer id="147" name="model_1/model/inception_resnet_v1/Block35_4_Branch_0_Conv2d_1x1_Activation/PartitionedCall/Relu" type="ReLU" version="opset1">
			<input>
				<port id="0">
					<dim>1</dim>
					<dim>32</dim>
					<dim>17</dim>
					<dim>17</dim>
				</port>
			</input>
			<output>
				<port id="1" precision="FP16">
					<dim>1</dim>
					<dim>32</dim>
					<dim>17</dim>
					<dim>17</dim>
				</port>
			</output>
		</layer>
		<layer id="148" name="model_1/model/inception_resnet_v1/Block35_4_Branch_1_Conv2d_0a_1x1/StatefulPartitionedCall/Conv2D/Transpose60236_const" type="Const" version="opset1">
			<data element_type="f16" offset="1709728" shape="32,256,1,1" size="16384"/>
			<output>
				<port id="1" precision="FP16">
					<dim>32</dim>
					<dim>256</dim>
					<dim>1</dim>
					<dim>1</dim>
				</port>
			</output>
		</layer>
		<layer id="149" name="model_1/model/inception_resnet_v1/Block35_4_Branch_1_Conv2d_0a_1x1/StatefulPartitionedCall/Conv2D" type="Convolution" version="opset1">
			<data auto_pad="same_upper" dilations="1,1" output_padding="0,0" pads_begin="0,0" pads_end="0,0" strides="1,1"/>
			<input>
				<port id="0">
					<dim>1</dim>
					<dim>256</dim>
					<dim>17</dim>
					<dim>17</dim>
				</port>
				<port id="1">
					<dim>32</dim>
					<dim>256</dim>
					<dim>1</dim>
					<dim>1</dim>
				</port>
			</input>
			<output>
				<port id="2" precision="FP16">
					<dim>1</dim>
					<dim>32</dim>
					<dim>17</dim>
					<dim>17</dim>
				</port>
			</output>
		</layer>
		<layer id="150" name="data_add_479844798949410/EltwiseUnsqueeze50935_const" type="Const" version="opset1">
			<data element_type="f16" offset="1726112" shape="1,32,1,1" size="64"/>
			<output>
				<port id="1" precision="FP16">
					<dim>1</dim>
					<dim>32</dim>
					<dim>1</dim>
					<dim>1</dim>
				</port>
			</output>
		</layer>
		<layer id="151" name="model_1/model/inception_resnet_v1/Block35_4_Branch_1_Conv2d_0a_1x1_BatchNorm/StatefulPartitionedCall/FusedBatchNormV3/variance/Fused_Add_" type="Add" version="opset1">
			<input>
				<port id="0">
					<dim>1</dim>
					<dim>32</dim>
					<dim>17</dim>
					<dim>17</dim>
				</port>
				<port id="1">
					<dim>1</dim>
					<dim>32</dim>
					<dim>1</dim>
					<dim>1</dim>
				</port>
			</input>
			<output>
				<port id="2" precision="FP16">
					<dim>1</dim>
					<dim>32</dim>
					<dim>17</dim>
					<dim>17</dim>
				</port>
			</output>
		</layer>
		<layer id="152" name="model_1/model/inception_resnet_v1/Block35_4_Branch_1_Conv2d_0a_1x1_Activation/PartitionedCall/Relu" type="ReLU" version="opset1">
			<input>
				<port id="0">
					<dim>1</dim>
					<dim>32</dim>
					<dim>17</dim>
					<dim>17</dim>
				</port>
			</input>
			<output>
				<port id="1" precision="FP16">
					<dim>1</dim>
					<dim>32</dim>
					<dim>17</dim>
					<dim>17</dim>
				</port>
			</output>
		</layer>
		<layer id="153" name="model_1/model/inception_resnet_v1/Block35_4_Branch_1_Conv2d_0b_3x3/StatefulPartitionedCall/Conv2D/Transpose60240_const" type="Const" version="opset1">
			<data element_type="f16" offset="1726176" shape="32,32,3,3" size="18432"/>
			<output>
				<port id="1" precision="FP16">
					<dim>32</dim>
					<dim>32</dim>
					<dim>3</dim>
					<dim>3</dim>
				</port>
			</output>
		</layer>
		<layer id="154" name="model_1/model/inception_resnet_v1/Block35_4_Branch_1_Conv2d_0b_3x3/StatefulPartitionedCall/Conv2D" type="Convolution" version="opset1">
			<data auto_pad="same_upper" dilations="1,1" output_padding="0,0" pads_begin="0,0" pads_end="0,0" strides="1,1"/>
			<input>
				<port id="0">
					<dim>1</dim>
					<dim>32</dim>
					<dim>17</dim>
					<dim>17</dim>
				</port>
				<port id="1">
					<dim>32</dim>
					<dim>32</dim>
					<dim>3</dim>
					<dim>3</dim>
				</port>
			</input>
			<output>
				<port id="2" precision="FP16">
					<dim>1</dim>
					<dim>32</dim>
					<dim>17</dim>
					<dim>17</dim>
				</port>
			</output>
		</layer>
		<layer id="155" name="data_add_479924799749412/EltwiseUnsqueeze50943_const" type="Const" version="opset1">
			<data element_type="f16" offset="1744608" shape="1,32,1,1" size="64"/>
			<output>
				<port id="1" precision="FP16">
					<dim>1</dim>
					<dim>32</dim>
					<dim>1</dim>
					<dim>1</dim>
				</port>
			</output>
		</layer>
		<layer id="156" name="model_1/model/inception_resnet_v1/Block35_4_Branch_1_Conv2d_0b_3x3_BatchNorm/StatefulPartitionedCall/FusedBatchNormV3/variance/Fused_Add_" type="Add" version="opset1">
			<input>
				<port id="0">
					<dim>1</dim>
					<dim>32</dim>
					<dim>17</dim>
					<dim>17</dim>
				</port>
				<port id="1">
					<dim>1</dim>
					<dim>32</dim>
					<dim>1</dim>
					<dim>1</dim>
				</port>
			</input>
			<output>
				<port id="2" precision="FP16">
					<dim>1</dim>
					<dim>32</dim>
					<dim>17</dim>
					<dim>17</dim>
				</port>
			</output>
		</layer>
		<layer id="157" name="model_1/model/inception_resnet_v1/Block35_4_Branch_1_Conv2d_0b_3x3_Activation/PartitionedCall/Relu" type="ReLU" version="opset1">
			<input>
				<port id="0">
					<dim>1</dim>
					<dim>32</dim>
					<dim>17</dim>
					<dim>17</dim>
				</port>
			</input>
			<output>
				<port id="1" precision="FP16">
					<dim>1</dim>
					<dim>32</dim>
					<dim>17</dim>
					<dim>17</dim>
				</port>
			</output>
		</layer>
		<layer id="158" name="model_1/model/inception_resnet_v1/Block35_4_Branch_2_Conv2d_0a_1x1/StatefulPartitionedCall/Conv2D/Transpose60244_const" type="Const" version="opset1">
			<data element_type="f16" offset="1744672" shape="32,256,1,1" size="16384"/>
			<output>
				<port id="1" precision="FP16">
					<dim>32</dim>
					<dim>256</dim>
					<dim>1</dim>
					<dim>1</dim>
				</port>
			</output>
		</layer>
		<layer id="159" name="model_1/model/inception_resnet_v1/Block35_4_Branch_2_Conv2d_0a_1x1/StatefulPartitionedCall/Conv2D" type="Convolution" version="opset1">
			<data auto_pad="same_upper" dilations="1,1" output_padding="0,0" pads_begin="0,0" pads_end="0,0" strides="1,1"/>
			<input>
				<port id="0">
					<dim>1</dim>
					<dim>256</dim>
					<dim>17</dim>
					<dim>17</dim>
				</port>
				<port id="1">
					<dim>32</dim>
					<dim>256</dim>
					<dim>1</dim>
					<dim>1</dim>
				</port>
			</input>
			<output>
				<port id="2" precision="FP16">
					<dim>1</dim>
					<dim>32</dim>
					<dim>17</dim>
					<dim>17</dim>
				</port>
			</output>
		</layer>
		<layer id="160" name="data_add_480004800549414/EltwiseUnsqueeze50951_const" type="Const" version="opset1">
			<data element_type="f16" offset="1761056" shape="1,32,1,1" size="64"/>
			<output>
				<port id="1" precision="FP16">
					<dim>1</dim>
					<dim>32</dim>
					<dim>1</dim>
					<dim>1</dim>
				</port>
			</output>
		</layer>
		<layer id="161" name="model_1/model/inception_resnet_v1/Block35_4_Branch_2_Conv2d_0a_1x1_BatchNorm/StatefulPartitionedCall/FusedBatchNormV3/variance/Fused_Add_" type="Add" version="opset1">
			<input>
				<port id="0">
					<dim>1</dim>
					<dim>32</dim>
					<dim>17</dim>
					<dim>17</dim>
				</port>
				<port id="1">
					<dim>1</dim>
					<dim>32</dim>
					<dim>1</dim>
					<dim>1</dim>
				</port>
			</input>
			<output>
				<port id="2" precision="FP16">
					<dim>1</dim>
					<dim>32</dim>
					<dim>17</dim>
					<dim>17</dim>
				</port>
			</output>
		</layer>
		<layer id="162" name="model_1/model/inception_resnet_v1/Block35_4_Branch_2_Conv2d_0a_1x1_Activation/PartitionedCall/Relu" type="ReLU" version="opset1">
			<input>
				<port id="0">
					<dim>1</dim>
					<dim>32</dim>
					<dim>17</dim>
					<dim>17</dim>
				</port>
			</input>
			<output>
				<port id="1" precision="FP16">
					<dim>1</dim>
					<dim>32</dim>
					<dim>17</dim>
					<dim>17</dim>
				</port>
			</output>
		</layer>
		<layer id="163" name="model_1/model/inception_resnet_v1/Block35_4_Branch_2_Conv2d_0b_3x3/StatefulPartitionedCall/Conv2D/Transpose60248_const" type="Const" version="opset1">
			<data element_type="f16" offset="1761120" shape="32,32,3,3" size="18432"/>
			<output>
				<port id="1" precision="FP16">
					<dim>32</dim>
					<dim>32</dim>
					<dim>3</dim>
					<dim>3</dim>
				</port>
			</output>
		</layer>
		<layer id="164" name="model_1/model/inception_resnet_v1/Block35_4_Branch_2_Conv2d_0b_3x3/StatefulPartitionedCall/Conv2D" type="Convolution" version="opset1">
			<data auto_pad="same_upper" dilations="1,1" output_padding="0,0" pads_begin="0,0" pads_end="0,0" strides="1,1"/>
			<input>
				<port id="0">
					<dim>1</dim>
					<dim>32</dim>
					<dim>17</dim>
					<dim>17</dim>
				</port>
				<port id="1">
					<dim>32</dim>
					<dim>32</dim>
					<dim>3</dim>
					<dim>3</dim>
				</port>
			</input>
			<output>
				<port id="2" precision="FP16">
					<dim>1</dim>
					<dim>32</dim>
					<dim>17</dim>
					<dim>17</dim>
				</port>
			</output>
		</layer>
		<layer id="165" name="data_add_480084801349416/EltwiseUnsqueeze50959_const" type="Const" version="opset1">
			<data element_type="f16" offset="1779552" shape="1,32,1,1" size="64"/>
			<output>
				<port id="1" precision="FP16">
					<dim>1</dim>
					<dim>32</dim>
					<dim>1</dim>
					<dim>1</dim>
				</port>
			</output>
		</layer>
		<layer id="166" name="model_1/model/inception_resnet_v1/Block35_4_Branch_2_Conv2d_0b_3x3_BatchNorm/StatefulPartitionedCall/FusedBatchNormV3/variance/Fused_Add_" type="Add" version="opset1">
			<input>
				<port id="0">
					<dim>1</dim>
					<dim>32</dim>
					<dim>17</dim>
					<dim>17</dim>
				</port>
				<port id="1">
					<dim>1</dim>
					<dim>32</dim>
					<dim>1</dim>
					<dim>1</dim>
				</port>
			</input>
			<output>
				<port id="2" precision="FP16">
					<dim>1</dim>
					<dim>32</dim>
					<dim>17</dim>
					<dim>17</dim>
				</port>
			</output>
		</layer>
		<layer id="167" name="model_1/model/inception_resnet_v1/Block35_4_Branch_2_Conv2d_0b_3x3_Activation/PartitionedCall/Relu" type="ReLU" version="opset1">
			<input>
				<port id="0">
					<dim>1</dim>
					<dim>32</dim>
					<dim>17</dim>
					<dim>17</dim>
				</port>
			</input>
			<output>
				<port id="1" precision="FP16">
					<dim>1</dim>
					<dim>32</dim>
					<dim>17</dim>
					<dim>17</dim>
				</port>
			</output>
		</layer>
		<layer id="168" name="model_1/model/inception_resnet_v1/Block35_4_Branch_2_Conv2d_0c_3x3/StatefulPartitionedCall/Conv2D/Transpose60252_const" type="Const" version="opset1">
			<data element_type="f16" offset="1779616" shape="32,32,3,3" size="18432"/>
			<output>
				<port id="1" precision="FP16">
					<dim>32</dim>
					<dim>32</dim>
					<dim>3</dim>
					<dim>3</dim>
				</port>
			</output>
		</layer>
		<layer id="169" name="model_1/model/inception_resnet_v1/Block35_4_Branch_2_Conv2d_0c_3x3/StatefulPartitionedCall/Conv2D" type="Convolution" version="opset1">
			<data auto_pad="same_upper" dilations="1,1" output_padding="0,0" pads_begin="0,0" pads_end="0,0" strides="1,1"/>
			<input>
				<port id="0">
					<dim>1</dim>
					<dim>32</dim>
					<dim>17</dim>
					<dim>17</dim>
				</port>
				<port id="1">
					<dim>32</dim>
					<dim>32</dim>
					<dim>3</dim>
					<dim>3</dim>
				</port>
			</input>
			<output>
				<port id="2" precision="FP16">
					<dim>1</dim>
					<dim>32</dim>
					<dim>17</dim>
					<dim>17</dim>
				</port>
			</output>
		</layer>
		<layer id="170" name="data_add_480164802149418/EltwiseUnsqueeze50967_const" type="Const" version="opset1">
			<data element_type="f16" offset="1798048" shape="1,32,1,1" size="64"/>
			<output>
				<port id="1" precision="FP16">
					<dim>1</dim>
					<dim>32</dim>
					<dim>1</dim>
					<dim>1</dim>
				</port>
			</output>
		</layer>
		<layer id="171" name="model_1/model/inception_resnet_v1/Block35_4_Branch_2_Conv2d_0c_3x3_BatchNorm/StatefulPartitionedCall/FusedBatchNormV3/variance/Fused_Add_" type="Add" version="opset1">
			<input>
				<port id="0">
					<dim>1</dim>
					<dim>32</dim>
					<dim>17</dim>
					<dim>17</dim>
				</port>
				<port id="1">
					<dim>1</dim>
					<dim>32</dim>
					<dim>1</dim>
					<dim>1</dim>
				</port>
			</input>
			<output>
				<port id="2" precision="FP16">
					<dim>1</dim>
					<dim>32</dim>
					<dim>17</dim>
					<dim>17</dim>
				</port>
			</output>
		</layer>
		<layer id="172" name="model_1/model/inception_resnet_v1/Block35_4_Branch_2_Conv2d_0c_3x3_Activation/PartitionedCall/Relu" type="ReLU" version="opset1">
			<input>
				<port id="0">
					<dim>1</dim>
					<dim>32</dim>
					<dim>17</dim>
					<dim>17</dim>
				</port>
			</input>
			<output>
				<port id="1" precision="FP16">
					<dim>1</dim>
					<dim>32</dim>
					<dim>17</dim>
					<dim>17</dim>
				</port>
			</output>
		</layer>
		<layer id="173" name="model_1/model/inception_resnet_v1/Block35_4_Concatenate/PartitionedCall/concat" type="Concat" version="opset1">
			<data axis="1"/>
			<input>
				<port id="0">
					<dim>1</dim>
					<dim>32</dim>
					<dim>17</dim>
					<dim>17</dim>
				</port>
				<port id="1">
					<dim>1</dim>
					<dim>32</dim>
					<dim>17</dim>
					<dim>17</dim>
				</port>
				<port id="2">
					<dim>1</dim>
					<dim>32</dim>
					<dim>17</dim>
					<dim>17</dim>
				</port>
			</input>
			<output>
				<port id="3" precision="FP16">
					<dim>1</dim>
					<dim>96</dim>
					<dim>17</dim>
					<dim>17</dim>
				</port>
			</output>
		</layer>
		<layer id="174" name="model_1/model/inception_resnet_v1/Block35_4_Conv2d_1x1/StatefulPartitionedCall/Conv2D/Transpose60256_const" type="Const" version="opset1">
			<data element_type="f16" offset="1798112" shape="256,96,1,1" size="49152"/>
			<output>
				<port id="1" precision="FP16">
					<dim>256</dim>
					<dim>96</dim>
					<dim>1</dim>
					<dim>1</dim>
				</port>
			</output>
		</layer>
		<layer id="175" name="model_1/model/inception_resnet_v1/Block35_4_Conv2d_1x1/StatefulPartitionedCall/Conv2D" type="Convolution" version="opset1">
			<data auto_pad="same_upper" dilations="1,1" output_padding="0,0" pads_begin="0,0" pads_end="0,0" strides="1,1"/>
			<input>
				<port id="0">
					<dim>1</dim>
					<dim>96</dim>
					<dim>17</dim>
					<dim>17</dim>
				</port>
				<port id="1">
					<dim>256</dim>
					<dim>96</dim>
					<dim>1</dim>
					<dim>1</dim>
				</port>
			</input>
			<output>
				<port id="2" precision="FP16">
					<dim>1</dim>
					<dim>256</dim>
					<dim>17</dim>
					<dim>17</dim>
				</port>
			</output>
		</layer>
		<layer id="176" name="data_add_480244802949420/EltwiseUnsqueeze50975_const" type="Const" version="opset1">
			<data element_type="f16" offset="1847264" shape="1,256,1,1" size="512"/>
			<output>
				<port id="1" precision="FP16">
					<dim>1</dim>
					<dim>256</dim>
					<dim>1</dim>
					<dim>1</dim>
				</port>
			</output>
		</layer>
		<layer id="177" name="model_1/model/inception_resnet_v1/Block35_4_Conv2d_1x1/StatefulPartitionedCall/BiasAdd/Add/Fused_Add_" type="Add" version="opset1">
			<input>
				<port id="0">
					<dim>1</dim>
					<dim>256</dim>
					<dim>17</dim>
					<dim>17</dim>
				</port>
				<port id="1">
					<dim>1</dim>
					<dim>256</dim>
					<dim>1</dim>
					<dim>1</dim>
				</port>
			</input>
			<output>
				<port id="2" precision="FP16">
					<dim>1</dim>
					<dim>256</dim>
					<dim>17</dim>
					<dim>17</dim>
				</port>
			</output>
		</layer>
		<layer id="178" name="model_1/model/inception_resnet_v1/Block35_4_ScaleSum/PartitionedCall/add" type="Add" version="opset1">
			<input>
				<port id="0">
					<dim>1</dim>
					<dim>256</dim>
					<dim>17</dim>
					<dim>17</dim>
				</port>
				<port id="1">
					<dim>1</dim>
					<dim>256</dim>
					<dim>17</dim>
					<dim>17</dim>
				</port>
			</input>
			<output>
				<port id="2" precision="FP16">
					<dim>1</dim>
					<dim>256</dim>
					<dim>17</dim>
					<dim>17</dim>
				</port>
			</output>
		</layer>
		<layer id="179" name="model_1/model/inception_resnet_v1/Block35_4_Activation/PartitionedCall/Relu" type="ReLU" version="opset1">
			<input>
				<port id="0">
					<dim>1</dim>
					<dim>256</dim>
					<dim>17</dim>
					<dim>17</dim>
				</port>
			</input>
			<output>
				<port id="1" precision="FP16">
					<dim>1</dim>
					<dim>256</dim>
					<dim>17</dim>
					<dim>17</dim>
				</port>
			</output>
		</layer>
		<layer id="180" name="model_1/model/inception_resnet_v1/Block35_5_Branch_0_Conv2d_1x1/StatefulPartitionedCall/Conv2D/Transpose60260_const" type="Const" version="opset1">
			<data element_type="f16" offset="1847776" shape="32,256,1,1" size="16384"/>
			<output>
				<port id="1" precision="FP16">
					<dim>32</dim>
					<dim>256</dim>
					<dim>1</dim>
					<dim>1</dim>
				</port>
			</output>
		</layer>
		<layer id="181" name="model_1/model/inception_resnet_v1/Block35_5_Branch_0_Conv2d_1x1/StatefulPartitionedCall/Conv2D" type="Convolution" version="opset1">
			<data auto_pad="same_upper" dilations="1,1" output_padding="0,0" pads_begin="0,0" pads_end="0,0" strides="1,1"/>
			<input>
				<port id="0">
					<dim>1</dim>
					<dim>256</dim>
					<dim>17</dim>
					<dim>17</dim>
				</port>
				<port id="1">
					<dim>32</dim>
					<dim>256</dim>
					<dim>1</dim>
					<dim>1</dim>
				</port>
			</input>
			<output>
				<port id="2" precision="FP16">
					<dim>1</dim>
					<dim>32</dim>
					<dim>17</dim>
					<dim>17</dim>
				</port>
			</output>
		</layer>
		<layer id="182" name="data_add_480324803749422/EltwiseUnsqueeze50983_const" type="Const" version="opset1">
			<data element_type="f16" offset="1864160" shape="1,32,1,1" size="64"/>
			<output>
				<port id="1" precision="FP16">
					<dim>1</dim>
					<dim>32</dim>
					<dim>1</dim>
					<dim>1</dim>
				</port>
			</output>
		</layer>
		<layer id="183" name="model_1/model/inception_resnet_v1/Block35_5_Branch_0_Conv2d_1x1_BatchNorm/StatefulPartitionedCall/FusedBatchNormV3/variance/Fused_Add_" type="Add" version="opset1">
			<input>
				<port id="0">
					<dim>1</dim>
					<dim>32</dim>
					<dim>17</dim>
					<dim>17</dim>
				</port>
				<port id="1">
					<dim>1</dim>
					<dim>32</dim>
					<dim>1</dim>
					<dim>1</dim>
				</port>
			</input>
			<output>
				<port id="2" precision="FP16">
					<dim>1</dim>
					<dim>32</dim>
					<dim>17</dim>
					<dim>17</dim>
				</port>
			</output>
		</layer>
		<layer id="184" name="model_1/model/inception_resnet_v1/Block35_5_Branch_0_Conv2d_1x1_Activation/PartitionedCall/Relu" type="ReLU" version="opset1">
			<input>
				<port id="0">
					<dim>1</dim>
					<dim>32</dim>
					<dim>17</dim>
					<dim>17</dim>
				</port>
			</input>
			<output>
				<port id="1" precision="FP16">
					<dim>1</dim>
					<dim>32</dim>
					<dim>17</dim>
					<dim>17</dim>
				</port>
			</output>
		</layer>
		<layer id="185" name="model_1/model/inception_resnet_v1/Block35_5_Branch_1_Conv2d_0a_1x1/StatefulPartitionedCall/Conv2D/Transpose60264_const" type="Const" version="opset1">
			<data element_type="f16" offset="1864224" shape="32,256,1,1" size="16384"/>
			<output>
				<port id="1" precision="FP16">
					<dim>32</dim>
					<dim>256</dim>
					<dim>1</dim>
					<dim>1</dim>
				</port>
			</output>
		</layer>
		<layer id="186" name="model_1/model/inception_resnet_v1/Block35_5_Branch_1_Conv2d_0a_1x1/StatefulPartitionedCall/Conv2D" type="Convolution" version="opset1">
			<data auto_pad="same_upper" dilations="1,1" output_padding="0,0" pads_begin="0,0" pads_end="0,0" strides="1,1"/>
			<input>
				<port id="0">
					<dim>1</dim>
					<dim>256</dim>
					<dim>17</dim>
					<dim>17</dim>
				</port>
				<port id="1">
					<dim>32</dim>
					<dim>256</dim>
					<dim>1</dim>
					<dim>1</dim>
				</port>
			</input>
			<output>
				<port id="2" precision="FP16">
					<dim>1</dim>
					<dim>32</dim>
					<dim>17</dim>
					<dim>17</dim>
				</port>
			</output>
		</layer>
		<layer id="187" name="data_add_480644806949430/EltwiseUnsqueeze51015_const" type="Const" version="opset1">
			<data element_type="f16" offset="1880608" shape="1,32,1,1" size="64"/>
			<output>
				<port id="1" precision="FP16">
					<dim>1</dim>
					<dim>32</dim>
					<dim>1</dim>
					<dim>1</dim>
				</port>
			</output>
		</layer>
		<layer id="188" name="model_1/model/inception_resnet_v1/Block35_5_Branch_1_Conv2d_0a_1x1_BatchNorm/StatefulPartitionedCall/FusedBatchNormV3/variance/Fused_Add_" type="Add" version="opset1">
			<input>
				<port id="0">
					<dim>1</dim>
					<dim>32</dim>
					<dim>17</dim>
					<dim>17</dim>
				</port>
				<port id="1">
					<dim>1</dim>
					<dim>32</dim>
					<dim>1</dim>
					<dim>1</dim>
				</port>
			</input>
			<output>
				<port id="2" precision="FP16">
					<dim>1</dim>
					<dim>32</dim>
					<dim>17</dim>
					<dim>17</dim>
				</port>
			</output>
		</layer>
		<layer id="189" name="model_1/model/inception_resnet_v1/Block35_5_Branch_1_Conv2d_0a_1x1_Activation/PartitionedCall/Relu" type="ReLU" version="opset1">
			<input>
				<port id="0">
					<dim>1</dim>
					<dim>32</dim>
					<dim>17</dim>
					<dim>17</dim>
				</port>
			</input>
			<output>
				<port id="1" precision="FP16">
					<dim>1</dim>
					<dim>32</dim>
					<dim>17</dim>
					<dim>17</dim>
				</port>
			</output>
		</layer>
		<layer id="190" name="model_1/model/inception_resnet_v1/Block35_5_Branch_1_Conv2d_0b_3x3/StatefulPartitionedCall/Conv2D/Transpose60268_const" type="Const" version="opset1">
			<data element_type="f16" offset="1880672" shape="32,32,3,3" size="18432"/>
			<output>
				<port id="1" precision="FP16">
					<dim>32</dim>
					<dim>32</dim>
					<dim>3</dim>
					<dim>3</dim>
				</port>
			</output>
		</layer>
		<layer id="191" name="model_1/model/inception_resnet_v1/Block35_5_Branch_1_Conv2d_0b_3x3/StatefulPartitionedCall/Conv2D" type="Convolution" version="opset1">
			<data auto_pad="same_upper" dilations="1,1" output_padding="0,0" pads_begin="0,0" pads_end="0,0" strides="1,1"/>
			<input>
				<port id="0">
					<dim>1</dim>
					<dim>32</dim>
					<dim>17</dim>
					<dim>17</dim>
				</port>
				<port id="1">
					<dim>32</dim>
					<dim>32</dim>
					<dim>3</dim>
					<dim>3</dim>
				</port>
			</input>
			<output>
				<port id="2" precision="FP16">
					<dim>1</dim>
					<dim>32</dim>
					<dim>17</dim>
					<dim>17</dim>
				</port>
			</output>
		</layer>
		<layer id="192" name="data_add_480724807749432/EltwiseUnsqueeze51023_const" type="Const" version="opset1">
			<data element_type="f16" offset="1899104" shape="1,32,1,1" size="64"/>
			<output>
				<port id="1" precision="FP16">
					<dim>1</dim>
					<dim>32</dim>
					<dim>1</dim>
					<dim>1</dim>
				</port>
			</output>
		</layer>
		<layer id="193" name="model_1/model/inception_resnet_v1/Block35_5_Branch_1_Conv2d_0b_3x3_BatchNorm/StatefulPartitionedCall/FusedBatchNormV3/variance/Fused_Add_" type="Add" version="opset1">
			<input>
				<port id="0">
					<dim>1</dim>
					<dim>32</dim>
					<dim>17</dim>
					<dim>17</dim>
				</port>
				<port id="1">
					<dim>1</dim>
					<dim>32</dim>
					<dim>1</dim>
					<dim>1</dim>
				</port>
			</input>
			<output>
				<port id="2" precision="FP16">
					<dim>1</dim>
					<dim>32</dim>
					<dim>17</dim>
					<dim>17</dim>
				</port>
			</output>
		</layer>
		<layer id="194" name="model_1/model/inception_resnet_v1/Block35_5_Branch_1_Conv2d_0b_3x3_Activation/PartitionedCall/Relu" type="ReLU" version="opset1">
			<input>
				<port id="0">
					<dim>1</dim>
					<dim>32</dim>
					<dim>17</dim>
					<dim>17</dim>
				</port>
			</input>
			<output>
				<port id="1" precision="FP16">
					<dim>1</dim>
					<dim>32</dim>
					<dim>17</dim>
					<dim>17</dim>
				</port>
			</output>
		</layer>
		<layer id="195" name="model_1/model/inception_resnet_v1/Block35_5_Branch_2_Conv2d_0a_1x1/StatefulPartitionedCall/Conv2D/Transpose60272_const" type="Const" version="opset1">
			<data element_type="f16" offset="1899168" shape="32,256,1,1" size="16384"/>
			<output>
				<port id="1" precision="FP16">
					<dim>32</dim>
					<dim>256</dim>
					<dim>1</dim>
					<dim>1</dim>
				</port>
			</output>
		</layer>
		<layer id="196" name="model_1/model/inception_resnet_v1/Block35_5_Branch_2_Conv2d_0a_1x1/StatefulPartitionedCall/Conv2D" type="Convolution" version="opset1">
			<data auto_pad="same_upper" dilations="1,1" output_padding="0,0" pads_begin="0,0" pads_end="0,0" strides="1,1"/>
			<input>
				<port id="0">
					<dim>1</dim>
					<dim>256</dim>
					<dim>17</dim>
					<dim>17</dim>
				</port>
				<port id="1">
					<dim>32</dim>
					<dim>256</dim>
					<dim>1</dim>
					<dim>1</dim>
				</port>
			</input>
			<output>
				<port id="2" precision="FP16">
					<dim>1</dim>
					<dim>32</dim>
					<dim>17</dim>
					<dim>17</dim>
				</port>
			</output>
		</layer>
		<layer id="197" name="data_add_480404804549424/EltwiseUnsqueeze50991_const" type="Const" version="opset1">
			<data element_type="f16" offset="1915552" shape="1,32,1,1" size="64"/>
			<output>
				<port id="1" precision="FP16">
					<dim>1</dim>
					<dim>32</dim>
					<dim>1</dim>
					<dim>1</dim>
				</port>
			</output>
		</layer>
		<layer id="198" name="model_1/model/inception_resnet_v1/Block35_5_Branch_2_Conv2d_0a_1x1_BatchNorm/StatefulPartitionedCall/FusedBatchNormV3/variance/Fused_Add_" type="Add" version="opset1">
			<input>
				<port id="0">
					<dim>1</dim>
					<dim>32</dim>
					<dim>17</dim>
					<dim>17</dim>
				</port>
				<port id="1">
					<dim>1</dim>
					<dim>32</dim>
					<dim>1</dim>
					<dim>1</dim>
				</port>
			</input>
			<output>
				<port id="2" precision="FP16">
					<dim>1</dim>
					<dim>32</dim>
					<dim>17</dim>
					<dim>17</dim>
				</port>
			</output>
		</layer>
		<layer id="199" name="model_1/model/inception_resnet_v1/Block35_5_Branch_2_Conv2d_0a_1x1_Activation/PartitionedCall/Relu" type="ReLU" version="opset1">
			<input>
				<port id="0">
					<dim>1</dim>
					<dim>32</dim>
					<dim>17</dim>
					<dim>17</dim>
				</port>
			</input>
			<output>
				<port id="1" precision="FP16">
					<dim>1</dim>
					<dim>32</dim>
					<dim>17</dim>
					<dim>17</dim>
				</port>
			</output>
		</layer>
		<layer id="200" name="model_1/model/inception_resnet_v1/Block35_5_Branch_2_Conv2d_0b_3x3/StatefulPartitionedCall/Conv2D/Transpose60276_const" type="Const" version="opset1">
			<data element_type="f16" offset="1915616" shape="32,32,3,3" size="18432"/>
			<output>
				<port id="1" precision="FP16">
					<dim>32</dim>
					<dim>32</dim>
					<dim>3</dim>
					<dim>3</dim>
				</port>
			</output>
		</layer>
		<layer id="201" name="model_1/model/inception_resnet_v1/Block35_5_Branch_2_Conv2d_0b_3x3/StatefulPartitionedCall/Conv2D" type="Convolution" version="opset1">
			<data auto_pad="same_upper" dilations="1,1" output_padding="0,0" pads_begin="0,0" pads_end="0,0" strides="1,1"/>
			<input>
				<port id="0">
					<dim>1</dim>
					<dim>32</dim>
					<dim>17</dim>
					<dim>17</dim>
				</port>
				<port id="1">
					<dim>32</dim>
					<dim>32</dim>
					<dim>3</dim>
					<dim>3</dim>
				</port>
			</input>
			<output>
				<port id="2" precision="FP16">
					<dim>1</dim>
					<dim>32</dim>
					<dim>17</dim>
					<dim>17</dim>
				</port>
			</output>
		</layer>
		<layer id="202" name="data_add_480484805349426/EltwiseUnsqueeze50999_const" type="Const" version="opset1">
			<data element_type="f16" offset="1934048" shape="1,32,1,1" size="64"/>
			<output>
				<port id="1" precision="FP16">
					<dim>1</dim>
					<dim>32</dim>
					<dim>1</dim>
					<dim>1</dim>
				</port>
			</output>
		</layer>
		<layer id="203" name="model_1/model/inception_resnet_v1/Block35_5_Branch_2_Conv2d_0b_3x3_BatchNorm/StatefulPartitionedCall/FusedBatchNormV3/variance/Fused_Add_" type="Add" version="opset1">
			<input>
				<port id="0">
					<dim>1</dim>
					<dim>32</dim>
					<dim>17</dim>
					<dim>17</dim>
				</port>
				<port id="1">
					<dim>1</dim>
					<dim>32</dim>
					<dim>1</dim>
					<dim>1</dim>
				</port>
			</input>
			<output>
				<port id="2" precision="FP16">
					<dim>1</dim>
					<dim>32</dim>
					<dim>17</dim>
					<dim>17</dim>
				</port>
			</output>
		</layer>
		<layer id="204" name="model_1/model/inception_resnet_v1/Block35_5_Branch_2_Conv2d_0b_3x3_Activation/PartitionedCall/Relu" type="ReLU" version="opset1">
			<input>
				<port id="0">
					<dim>1</dim>
					<dim>32</dim>
					<dim>17</dim>
					<dim>17</dim>
				</port>
			</input>
			<output>
				<port id="1" precision="FP16">
					<dim>1</dim>
					<dim>32</dim>
					<dim>17</dim>
					<dim>17</dim>
				</port>
			</output>
		</layer>
		<layer id="205" name="model_1/model/inception_resnet_v1/Block35_5_Branch_2_Conv2d_0c_3x3/StatefulPartitionedCall/Conv2D/Transpose60280_const" type="Const" version="opset1">
			<data element_type="f16" offset="1934112" shape="32,32,3,3" size="18432"/>
			<output>
				<port id="1" precision="FP16">
					<dim>32</dim>
					<dim>32</dim>
					<dim>3</dim>
					<dim>3</dim>
				</port>
			</output>
		</layer>
		<layer id="206" name="model_1/model/inception_resnet_v1/Block35_5_Branch_2_Conv2d_0c_3x3/StatefulPartitionedCall/Conv2D" type="Convolution" version="opset1">
			<data auto_pad="same_upper" dilations="1,1" output_padding="0,0" pads_begin="0,0" pads_end="0,0" strides="1,1"/>
			<input>
				<port id="0">
					<dim>1</dim>
					<dim>32</dim>
					<dim>17</dim>
					<dim>17</dim>
				</port>
				<port id="1">
					<dim>32</dim>
					<dim>32</dim>
					<dim>3</dim>
					<dim>3</dim>
				</port>
			</input>
			<output>
				<port id="2" precision="FP16">
					<dim>1</dim>
					<dim>32</dim>
					<dim>17</dim>
					<dim>17</dim>
				</port>
			</output>
		</layer>
		<layer id="207" name="data_add_480564806149428/EltwiseUnsqueeze51007_const" type="Const" version="opset1">
			<data element_type="f16" offset="1952544" shape="1,32,1,1" size="64"/>
			<output>
				<port id="1" precision="FP16">
					<dim>1</dim>
					<dim>32</dim>
					<dim>1</dim>
					<dim>1</dim>
				</port>
			</output>
		</layer>
		<layer id="208" name="model_1/model/inception_resnet_v1/Block35_5_Branch_2_Conv2d_0c_3x3_BatchNorm/StatefulPartitionedCall/FusedBatchNormV3/variance/Fused_Add_" type="Add" version="opset1">
			<input>
				<port id="0">
					<dim>1</dim>
					<dim>32</dim>
					<dim>17</dim>
					<dim>17</dim>
				</port>
				<port id="1">
					<dim>1</dim>
					<dim>32</dim>
					<dim>1</dim>
					<dim>1</dim>
				</port>
			</input>
			<output>
				<port id="2" precision="FP16">
					<dim>1</dim>
					<dim>32</dim>
					<dim>17</dim>
					<dim>17</dim>
				</port>
			</output>
		</layer>
		<layer id="209" name="model_1/model/inception_resnet_v1/Block35_5_Branch_2_Conv2d_0c_3x3_Activation/PartitionedCall/Relu" type="ReLU" version="opset1">
			<input>
				<port id="0">
					<dim>1</dim>
					<dim>32</dim>
					<dim>17</dim>
					<dim>17</dim>
				</port>
			</input>
			<output>
				<port id="1" precision="FP16">
					<dim>1</dim>
					<dim>32</dim>
					<dim>17</dim>
					<dim>17</dim>
				</port>
			</output>
		</layer>
		<layer id="210" name="model_1/model/inception_resnet_v1/Block35_5_Concatenate/PartitionedCall/concat" type="Concat" version="opset1">
			<data axis="1"/>
			<input>
				<port id="0">
					<dim>1</dim>
					<dim>32</dim>
					<dim>17</dim>
					<dim>17</dim>
				</port>
				<port id="1">
					<dim>1</dim>
					<dim>32</dim>
					<dim>17</dim>
					<dim>17</dim>
				</port>
				<port id="2">
					<dim>1</dim>
					<dim>32</dim>
					<dim>17</dim>
					<dim>17</dim>
				</port>
			</input>
			<output>
				<port id="3" precision="FP16">
					<dim>1</dim>
					<dim>96</dim>
					<dim>17</dim>
					<dim>17</dim>
				</port>
			</output>
		</layer>
		<layer id="211" name="model_1/model/inception_resnet_v1/Block35_5_Conv2d_1x1/StatefulPartitionedCall/Conv2D/Transpose60284_const" type="Const" version="opset1">
			<data element_type="f16" offset="1952608" shape="256,96,1,1" size="49152"/>
			<output>
				<port id="1" precision="FP16">
					<dim>256</dim>
					<dim>96</dim>
					<dim>1</dim>
					<dim>1</dim>
				</port>
			</output>
		</layer>
		<layer id="212" name="model_1/model/inception_resnet_v1/Block35_5_Conv2d_1x1/StatefulPartitionedCall/Conv2D" type="Convolution" version="opset1">
			<data auto_pad="same_upper" dilations="1,1" output_padding="0,0" pads_begin="0,0" pads_end="0,0" strides="1,1"/>
			<input>
				<port id="0">
					<dim>1</dim>
					<dim>96</dim>
					<dim>17</dim>
					<dim>17</dim>
				</port>
				<port id="1">
					<dim>256</dim>
					<dim>96</dim>
					<dim>1</dim>
					<dim>1</dim>
				</port>
			</input>
			<output>
				<port id="2" precision="FP16">
					<dim>1</dim>
					<dim>256</dim>
					<dim>17</dim>
					<dim>17</dim>
				</port>
			</output>
		</layer>
		<layer id="213" name="data_add_480804808549434/EltwiseUnsqueeze51031_const" type="Const" version="opset1">
			<data element_type="f16" offset="2001760" shape="1,256,1,1" size="512"/>
			<output>
				<port id="1" precision="FP16">
					<dim>1</dim>
					<dim>256</dim>
					<dim>1</dim>
					<dim>1</dim>
				</port>
			</output>
		</layer>
		<layer id="214" name="model_1/model/inception_resnet_v1/Block35_5_Conv2d_1x1/StatefulPartitionedCall/BiasAdd/Add/Fused_Add_" type="Add" version="opset1">
			<input>
				<port id="0">
					<dim>1</dim>
					<dim>256</dim>
					<dim>17</dim>
					<dim>17</dim>
				</port>
				<port id="1">
					<dim>1</dim>
					<dim>256</dim>
					<dim>1</dim>
					<dim>1</dim>
				</port>
			</input>
			<output>
				<port id="2" precision="FP16">
					<dim>1</dim>
					<dim>256</dim>
					<dim>17</dim>
					<dim>17</dim>
				</port>
			</output>
		</layer>
		<layer id="215" name="model_1/model/inception_resnet_v1/Block35_5_ScaleSum/PartitionedCall/add" type="Add" version="opset1">
			<input>
				<port id="0">
					<dim>1</dim>
					<dim>256</dim>
					<dim>17</dim>
					<dim>17</dim>
				</port>
				<port id="1">
					<dim>1</dim>
					<dim>256</dim>
					<dim>17</dim>
					<dim>17</dim>
				</port>
			</input>
			<output>
				<port id="2" precision="FP16">
					<dim>1</dim>
					<dim>256</dim>
					<dim>17</dim>
					<dim>17</dim>
				</port>
			</output>
		</layer>
		<layer id="216" name="model_1/model/inception_resnet_v1/Block35_5_Activation/PartitionedCall/Relu" type="ReLU" version="opset1">
			<input>
				<port id="0">
					<dim>1</dim>
					<dim>256</dim>
					<dim>17</dim>
					<dim>17</dim>
				</port>
			</input>
			<output>
				<port id="1" precision="FP16">
					<dim>1</dim>
					<dim>256</dim>
					<dim>17</dim>
					<dim>17</dim>
				</port>
			</output>
		</layer>
		<layer id="217" name="model_1/model/inception_resnet_v1/Mixed_6a_Branch_0_Conv2d_1a_3x3/StatefulPartitionedCall/Conv2D/Transpose60288_const" type="Const" version="opset1">
			<data element_type="f16" offset="2002272" shape="384,256,3,3" size="1769472"/>
			<output>
				<port id="1" precision="FP16">
					<dim>384</dim>
					<dim>256</dim>
					<dim>3</dim>
					<dim>3</dim>
				</port>
			</output>
		</layer>
		<layer id="218" name="model_1/model/inception_resnet_v1/Mixed_6a_Branch_0_Conv2d_1a_3x3/StatefulPartitionedCall/Conv2D" type="Convolution" version="opset1">
			<data auto_pad="valid" dilations="1,1" output_padding="0,0" pads_begin="0,0" pads_end="0,0" strides="2,2"/>
			<input>
				<port id="0">
					<dim>1</dim>
					<dim>256</dim>
					<dim>17</dim>
					<dim>17</dim>
				</port>
				<port id="1">
					<dim>384</dim>
					<dim>256</dim>
					<dim>3</dim>
					<dim>3</dim>
				</port>
			</input>
			<output>
				<port id="2" precision="FP16">
					<dim>1</dim>
					<dim>384</dim>
					<dim>8</dim>
					<dim>8</dim>
				</port>
			</output>
		</layer>
		<layer id="219" name="data_add_480884809349436/EltwiseUnsqueeze51039_const" type="Const" version="opset1">
			<data element_type="f16" offset="3771744" shape="1,384,1,1" size="768"/>
			<output>
				<port id="1" precision="FP16">
					<dim>1</dim>
					<dim>384</dim>
					<dim>1</dim>
					<dim>1</dim>
				</port>
			</output>
		</layer>
		<layer id="220" name="model_1/model/inception_resnet_v1/Mixed_6a_Branch_0_Conv2d_1a_3x3_BatchNorm/StatefulPartitionedCall/FusedBatchNormV3/variance/Fused_Add_" type="Add" version="opset1">
			<input>
				<port id="0">
					<dim>1</dim>
					<dim>384</dim>
					<dim>8</dim>
					<dim>8</dim>
				</port>
				<port id="1">
					<dim>1</dim>
					<dim>384</dim>
					<dim>1</dim>
					<dim>1</dim>
				</port>
			</input>
			<output>
				<port id="2" precision="FP16">
					<dim>1</dim>
					<dim>384</dim>
					<dim>8</dim>
					<dim>8</dim>
				</port>
			</output>
		</layer>
		<layer id="221" name="model_1/model/inception_resnet_v1/Mixed_6a_Branch_0_Conv2d_1a_3x3_Activation/PartitionedCall/Relu" type="ReLU" version="opset1">
			<input>
				<port id="0">
					<dim>1</dim>
					<dim>384</dim>
					<dim>8</dim>
					<dim>8</dim>
				</port>
			</input>
			<output>
				<port id="1" precision="FP16">
					<dim>1</dim>
					<dim>384</dim>
					<dim>8</dim>
					<dim>8</dim>
				</port>
			</output>
		</layer>
		<layer id="222" name="model_1/model/inception_resnet_v1/Mixed_6a_Branch_1_Conv2d_0a_1x1/StatefulPartitionedCall/Conv2D/Transpose60292_const" type="Const" version="opset1">
			<data element_type="f16" offset="3772512" shape="192,256,1,1" size="98304"/>
			<output>
				<port id="1" precision="FP16">
					<dim>192</dim>
					<dim>256</dim>
					<dim>1</dim>
					<dim>1</dim>
				</port>
			</output>
		</layer>
		<layer id="223" name="model_1/model/inception_resnet_v1/Mixed_6a_Branch_1_Conv2d_0a_1x1/StatefulPartitionedCall/Conv2D" type="Convolution" version="opset1">
			<data auto_pad="same_upper" dilations="1,1" output_padding="0,0" pads_begin="0,0" pads_end="0,0" strides="1,1"/>
			<input>
				<port id="0">
					<dim>1</dim>
					<dim>256</dim>
					<dim>17</dim>
					<dim>17</dim>
				</port>
				<port id="1">
					<dim>192</dim>
					<dim>256</dim>
					<dim>1</dim>
					<dim>1</dim>
				</port>
			</input>
			<output>
				<port id="2" precision="FP16">
					<dim>1</dim>
					<dim>192</dim>
					<dim>17</dim>
					<dim>17</dim>
				</port>
			</output>
		</layer>
		<layer id="224" name="data_add_480964810149438/EltwiseUnsqueeze51047_const" type="Const" version="opset1">
			<data element_type="f16" offset="3870816" shape="1,192,1,1" size="384"/>
			<output>
				<port id="1" precision="FP16">
					<dim>1</dim>
					<dim>192</dim>
					<dim>1</dim>
					<dim>1</dim>
				</port>
			</output>
		</layer>
		<layer id="225" name="model_1/model/inception_resnet_v1/Mixed_6a_Branch_1_Conv2d_0a_1x1_BatchNorm/StatefulPartitionedCall/FusedBatchNormV3/variance/Fused_Add_" type="Add" version="opset1">
			<input>
				<port id="0">
					<dim>1</dim>
					<dim>192</dim>
					<dim>17</dim>
					<dim>17</dim>
				</port>
				<port id="1">
					<dim>1</dim>
					<dim>192</dim>
					<dim>1</dim>
					<dim>1</dim>
				</port>
			</input>
			<output>
				<port id="2" precision="FP16">
					<dim>1</dim>
					<dim>192</dim>
					<dim>17</dim>
					<dim>17</dim>
				</port>
			</output>
		</layer>
		<layer id="226" name="model_1/model/inception_resnet_v1/Mixed_6a_Branch_1_Conv2d_0a_1x1_Activation/PartitionedCall/Relu" type="ReLU" version="opset1">
			<input>
				<port id="0">
					<dim>1</dim>
					<dim>192</dim>
					<dim>17</dim>
					<dim>17</dim>
				</port>
			</input>
			<output>
				<port id="1" precision="FP16">
					<dim>1</dim>
					<dim>192</dim>
					<dim>17</dim>
					<dim>17</dim>
				</port>
			</output>
		</layer>
		<layer id="227" name="model_1/model/inception_resnet_v1/Mixed_6a_Branch_1_Conv2d_0b_3x3/StatefulPartitionedCall/Conv2D/Transpose60296_const" type="Const" version="opset1">
			<data element_type="f16" offset="3871200" shape="192,192,3,3" size="663552"/>
			<output>
				<port id="1" precision="FP16">
					<dim>192</dim>
					<dim>192</dim>
					<dim>3</dim>
					<dim>3</dim>
				</port>
			</output>
		</layer>
		<layer id="228" name="model_1/model/inception_resnet_v1/Mixed_6a_Branch_1_Conv2d_0b_3x3/StatefulPartitionedCall/Conv2D" type="Convolution" version="opset1">
			<data auto_pad="same_upper" dilations="1,1" output_padding="0,0" pads_begin="0,0" pads_end="0,0" strides="1,1"/>
			<input>
				<port id="0">
					<dim>1</dim>
					<dim>192</dim>
					<dim>17</dim>
					<dim>17</dim>
				</port>
				<port id="1">
					<dim>192</dim>
					<dim>192</dim>
					<dim>3</dim>
					<dim>3</dim>
				</port>
			</input>
			<output>
				<port id="2" precision="FP16">
					<dim>1</dim>
					<dim>192</dim>
					<dim>17</dim>
					<dim>17</dim>
				</port>
			</output>
		</layer>
		<layer id="229" name="data_add_481044810949440/EltwiseUnsqueeze51055_const" type="Const" version="opset1">
			<data element_type="f16" offset="4534752" shape="1,192,1,1" size="384"/>
			<output>
				<port id="1" precision="FP16">
					<dim>1</dim>
					<dim>192</dim>
					<dim>1</dim>
					<dim>1</dim>
				</port>
			</output>
		</layer>
		<layer id="230" name="model_1/model/inception_resnet_v1/Mixed_6a_Branch_1_Conv2d_0b_3x3_BatchNorm/StatefulPartitionedCall/FusedBatchNormV3/variance/Fused_Add_" type="Add" version="opset1">
			<input>
				<port id="0">
					<dim>1</dim>
					<dim>192</dim>
					<dim>17</dim>
					<dim>17</dim>
				</port>
				<port id="1">
					<dim>1</dim>
					<dim>192</dim>
					<dim>1</dim>
					<dim>1</dim>
				</port>
			</input>
			<output>
				<port id="2" precision="FP16">
					<dim>1</dim>
					<dim>192</dim>
					<dim>17</dim>
					<dim>17</dim>
				</port>
			</output>
		</layer>
		<layer id="231" name="model_1/model/inception_resnet_v1/Mixed_6a_Branch_1_Conv2d_0b_3x3_Activation/PartitionedCall/Relu" type="ReLU" version="opset1">
			<input>
				<port id="0">
					<dim>1</dim>
					<dim>192</dim>
					<dim>17</dim>
					<dim>17</dim>
				</port>
			</input>
			<output>
				<port id="1" precision="FP16">
					<dim>1</dim>
					<dim>192</dim>
					<dim>17</dim>
					<dim>17</dim>
				</port>
			</output>
		</layer>
		<layer id="232" name="model_1/model/inception_resnet_v1/Mixed_6a_Branch_1_Conv2d_1a_3x3/StatefulPartitionedCall/Conv2D/Transpose60300_const" type="Const" version="opset1">
			<data element_type="f16" offset="4535136" shape="256,192,3,3" size="884736"/>
			<output>
				<port id="1" precision="FP16">
					<dim>256</dim>
					<dim>192</dim>
					<dim>3</dim>
					<dim>3</dim>
				</port>
			</output>
		</layer>
		<layer id="233" name="model_1/model/inception_resnet_v1/Mixed_6a_Branch_1_Conv2d_1a_3x3/StatefulPartitionedCall/Conv2D" type="Convolution" version="opset1">
			<data auto_pad="valid" dilations="1,1" output_padding="0,0" pads_begin="0,0" pads_end="0,0" strides="2,2"/>
			<input>
				<port id="0">
					<dim>1</dim>
					<dim>192</dim>
					<dim>17</dim>
					<dim>17</dim>
				</port>
				<port id="1">
					<dim>256</dim>
					<dim>192</dim>
					<dim>3</dim>
					<dim>3</dim>
				</port>
			</input>
			<output>
				<port id="2" precision="FP16">
					<dim>1</dim>
					<dim>256</dim>
					<dim>8</dim>
					<dim>8</dim>
				</port>
			</output>
		</layer>
		<layer id="234" name="data_add_481124811749442/EltwiseUnsqueeze51063_const" type="Const" version="opset1">
			<data element_type="f16" offset="5419872" shape="1,256,1,1" size="512"/>
			<output>
				<port id="1" precision="FP16">
					<dim>1</dim>
					<dim>256</dim>
					<dim>1</dim>
					<dim>1</dim>
				</port>
			</output>
		</layer>
		<layer id="235" name="model_1/model/inception_resnet_v1/Mixed_6a_Branch_1_Conv2d_1a_3x3_BatchNorm/StatefulPartitionedCall/FusedBatchNormV3/variance/Fused_Add_" type="Add" version="opset1">
			<input>
				<port id="0">
					<dim>1</dim>
					<dim>256</dim>
					<dim>8</dim>
					<dim>8</dim>
				</port>
				<port id="1">
					<dim>1</dim>
					<dim>256</dim>
					<dim>1</dim>
					<dim>1</dim>
				</port>
			</input>
			<output>
				<port id="2" precision="FP16">
					<dim>1</dim>
					<dim>256</dim>
					<dim>8</dim>
					<dim>8</dim>
				</port>
			</output>
		</layer>
		<layer id="236" name="model_1/model/inception_resnet_v1/Mixed_6a_Branch_1_Conv2d_1a_3x3_Activation/PartitionedCall/Relu" type="ReLU" version="opset1">
			<input>
				<port id="0">
					<dim>1</dim>
					<dim>256</dim>
					<dim>8</dim>
					<dim>8</dim>
				</port>
			</input>
			<output>
				<port id="1" precision="FP16">
					<dim>1</dim>
					<dim>256</dim>
					<dim>8</dim>
					<dim>8</dim>
				</port>
			</output>
		</layer>
		<layer id="237" name="model_1/model/inception_resnet_v1/Mixed_6a_Branch_2_MaxPool_1a_3x3/PartitionedCall/MaxPool" type="MaxPool" version="opset1">
			<data auto_pad="valid" kernel="3,3" pads_begin="0,0" pads_end="0,0" strides="2,2"/>
			<input>
				<port id="0">
					<dim>1</dim>
					<dim>256</dim>
					<dim>17</dim>
					<dim>17</dim>
				</port>
			</input>
			<output>
				<port id="1" precision="FP16">
					<dim>1</dim>
					<dim>256</dim>
					<dim>8</dim>
					<dim>8</dim>
				</port>
			</output>
		</layer>
		<layer id="238" name="model_1/model/inception_resnet_v1/Mixed_6a/PartitionedCall/concat" type="Concat" version="opset1">
			<data axis="1"/>
			<input>
				<port id="0">
					<dim>1</dim>
					<dim>384</dim>
					<dim>8</dim>
					<dim>8</dim>
				</port>
				<port id="1">
					<dim>1</dim>
					<dim>256</dim>
					<dim>8</dim>
					<dim>8</dim>
				</port>
				<port id="2">
					<dim>1</dim>
					<dim>256</dim>
					<dim>8</dim>
					<dim>8</dim>
				</port>
			</input>
			<output>
				<port id="3" precision="FP16">
					<dim>1</dim>
					<dim>896</dim>
					<dim>8</dim>
					<dim>8</dim>
				</port>
			</output>
		</layer>
		<layer id="239" name="model_1/model/inception_resnet_v1/Block17_1_Branch_0_Conv2d_1x1/StatefulPartitionedCall/Conv2D/Transpose60304_const" type="Const" version="opset1">
			<data element_type="f16" offset="5420384" shape="128,896,1,1" size="229376"/>
			<output>
				<port id="1" precision="FP16">
					<dim>128</dim>
					<dim>896</dim>
					<dim>1</dim>
					<dim>1</dim>
				</port>
			</output>
		</layer>
		<layer id="240" name="model_1/model/inception_resnet_v1/Block17_1_Branch_0_Conv2d_1x1/StatefulPartitionedCall/Conv2D" type="Convolution" version="opset1">
			<data auto_pad="same_upper" dilations="1,1" output_padding="0,0" pads_begin="0,0" pads_end="0,0" strides="1,1"/>
			<input>
				<port id="0">
					<dim>1</dim>
					<dim>896</dim>
					<dim>8</dim>
					<dim>8</dim>
				</port>
				<port id="1">
					<dim>128</dim>
					<dim>896</dim>
					<dim>1</dim>
					<dim>1</dim>
				</port>
			</input>
			<output>
				<port id="2" precision="FP16">
					<dim>1</dim>
					<dim>128</dim>
					<dim>8</dim>
					<dim>8</dim>
				</port>
			</output>
		</layer>
		<layer id="241" name="data_add_481444814949450/EltwiseUnsqueeze51095_const" type="Const" version="opset1">
			<data element_type="f16" offset="5649760" shape="1,128,1,1" size="256"/>
			<output>
				<port id="1" precision="FP16">
					<dim>1</dim>
					<dim>128</dim>
					<dim>1</dim>
					<dim>1</dim>
				</port>
			</output>
		</layer>
		<layer id="242" name="model_1/model/inception_resnet_v1/Block17_1_Branch_0_Conv2d_1x1_BatchNorm/StatefulPartitionedCall/FusedBatchNormV3/variance/Fused_Add_" type="Add" version="opset1">
			<input>
				<port id="0">
					<dim>1</dim>
					<dim>128</dim>
					<dim>8</dim>
					<dim>8</dim>
				</port>
				<port id="1">
					<dim>1</dim>
					<dim>128</dim>
					<dim>1</dim>
					<dim>1</dim>
				</port>
			</input>
			<output>
				<port id="2" precision="FP16">
					<dim>1</dim>
					<dim>128</dim>
					<dim>8</dim>
					<dim>8</dim>
				</port>
			</output>
		</layer>
		<layer id="243" name="model_1/model/inception_resnet_v1/Block17_1_Branch_0_Conv2d_1x1_Activation/PartitionedCall/Relu" type="ReLU" version="opset1">
			<input>
				<port id="0">
					<dim>1</dim>
					<dim>128</dim>
					<dim>8</dim>
					<dim>8</dim>
				</port>
			</input>
			<output>
				<port id="1" precision="FP16">
					<dim>1</dim>
					<dim>128</dim>
					<dim>8</dim>
					<dim>8</dim>
				</port>
			</output>
		</layer>
		<layer id="244" name="model_1/model/inception_resnet_v1/Block17_1_Branch_1_Conv2d_0a_1x1/StatefulPartitionedCall/Conv2D/Transpose60308_const" type="Const" version="opset1">
			<data element_type="f16" offset="5650016" shape="128,896,1,1" size="229376"/>
			<output>
				<port id="1" precision="FP16">
					<dim>128</dim>
					<dim>896</dim>
					<dim>1</dim>
					<dim>1</dim>
				</port>
			</output>
		</layer>
		<layer id="245" name="model_1/model/inception_resnet_v1/Block17_1_Branch_1_Conv2d_0a_1x1/StatefulPartitionedCall/Conv2D" type="Convolution" version="opset1">
			<data auto_pad="same_upper" dilations="1,1" output_padding="0,0" pads_begin="0,0" pads_end="0,0" strides="1,1"/>
			<input>
				<port id="0">
					<dim>1</dim>
					<dim>896</dim>
					<dim>8</dim>
					<dim>8</dim>
				</port>
				<port id="1">
					<dim>128</dim>
					<dim>896</dim>
					<dim>1</dim>
					<dim>1</dim>
				</port>
			</input>
			<output>
				<port id="2" precision="FP16">
					<dim>1</dim>
					<dim>128</dim>
					<dim>8</dim>
					<dim>8</dim>
				</port>
			</output>
		</layer>
		<layer id="246" name="data_add_481204812549444/EltwiseUnsqueeze51071_const" type="Const" version="opset1">
			<data element_type="f16" offset="5879392" shape="1,128,1,1" size="256"/>
			<output>
				<port id="1" precision="FP16">
					<dim>1</dim>
					<dim>128</dim>
					<dim>1</dim>
					<dim>1</dim>
				</port>
			</output>
		</layer>
		<layer id="247" name="model_1/model/inception_resnet_v1/Block17_1_Branch_1_Conv2d_0a_1x1_BatchNorm/StatefulPartitionedCall/FusedBatchNormV3/variance/Fused_Add_" type="Add" version="opset1">
			<input>
				<port id="0">
					<dim>1</dim>
					<dim>128</dim>
					<dim>8</dim>
					<dim>8</dim>
				</port>
				<port id="1">
					<dim>1</dim>
					<dim>128</dim>
					<dim>1</dim>
					<dim>1</dim>
				</port>
			</input>
			<output>
				<port id="2" precision="FP16">
					<dim>1</dim>
					<dim>128</dim>
					<dim>8</dim>
					<dim>8</dim>
				</port>
			</output>
		</layer>
		<layer id="248" name="model_1/model/inception_resnet_v1/Block17_1_Branch_1_Conv2d_0a_1x1_Activation/PartitionedCall/Relu" type="ReLU" version="opset1">
			<input>
				<port id="0">
					<dim>1</dim>
					<dim>128</dim>
					<dim>8</dim>
					<dim>8</dim>
				</port>
			</input>
			<output>
				<port id="1" precision="FP16">
					<dim>1</dim>
					<dim>128</dim>
					<dim>8</dim>
					<dim>8</dim>
				</port>
			</output>
		</layer>
		<layer id="249" name="model_1/model/inception_resnet_v1/Block17_1_Branch_1_Conv2d_0b_1x7/StatefulPartitionedCall/Conv2D/Transpose60312_const" type="Const" version="opset1">
			<data element_type="f16" offset="5879648" shape="128,128,1,7" size="229376"/>
			<output>
				<port id="1" precision="FP16">
					<dim>128</dim>
					<dim>128</dim>
					<dim>1</dim>
					<dim>7</dim>
				</port>
			</output>
		</layer>
		<layer id="250" name="model_1/model/inception_resnet_v1/Block17_1_Branch_1_Conv2d_0b_1x7/StatefulPartitionedCall/Conv2D" type="Convolution" version="opset1">
			<data auto_pad="same_upper" dilations="1,1" output_padding="0,0" pads_begin="0,0" pads_end="0,0" strides="1,1"/>
			<input>
				<port id="0">
					<dim>1</dim>
					<dim>128</dim>
					<dim>8</dim>
					<dim>8</dim>
				</port>
				<port id="1">
					<dim>128</dim>
					<dim>128</dim>
					<dim>1</dim>
					<dim>7</dim>
				</port>
			</input>
			<output>
				<port id="2" precision="FP16">
					<dim>1</dim>
					<dim>128</dim>
					<dim>8</dim>
					<dim>8</dim>
				</port>
			</output>
		</layer>
		<layer id="251" name="data_add_481284813349446/EltwiseUnsqueeze51079_const" type="Const" version="opset1">
			<data element_type="f16" offset="6109024" shape="1,128,1,1" size="256"/>
			<output>
				<port id="1" precision="FP16">
					<dim>1</dim>
					<dim>128</dim>
					<dim>1</dim>
					<dim>1</dim>
				</port>
			</output>
		</layer>
		<layer id="252" name="model_1/model/inception_resnet_v1/Block17_1_Branch_1_Conv2d_0b_1x7_BatchNorm/StatefulPartitionedCall/FusedBatchNormV3/variance/Fused_Add_" type="Add" version="opset1">
			<input>
				<port id="0">
					<dim>1</dim>
					<dim>128</dim>
					<dim>8</dim>
					<dim>8</dim>
				</port>
				<port id="1">
					<dim>1</dim>
					<dim>128</dim>
					<dim>1</dim>
					<dim>1</dim>
				</port>
			</input>
			<output>
				<port id="2" precision="FP16">
					<dim>1</dim>
					<dim>128</dim>
					<dim>8</dim>
					<dim>8</dim>
				</port>
			</output>
		</layer>
		<layer id="253" name="model_1/model/inception_resnet_v1/Block17_1_Branch_1_Conv2d_0b_1x7_Activation/PartitionedCall/Relu" type="ReLU" version="opset1">
			<input>
				<port id="0">
					<dim>1</dim>
					<dim>128</dim>
					<dim>8</dim>
					<dim>8</dim>
				</port>
			</input>
			<output>
				<port id="1" precision="FP16">
					<dim>1</dim>
					<dim>128</dim>
					<dim>8</dim>
					<dim>8</dim>
				</port>
			</output>
		</layer>
		<layer id="254" name="model_1/model/inception_resnet_v1/Block17_1_Branch_1_Conv2d_0c_7x1/StatefulPartitionedCall/Conv2D/Transpose60316_const" type="Const" version="opset1">
			<data element_type="f16" offset="6109280" shape="128,128,7,1" size="229376"/>
			<output>
				<port id="1" precision="FP16">
					<dim>128</dim>
					<dim>128</dim>
					<dim>7</dim>
					<dim>1</dim>
				</port>
			</output>
		</layer>
		<layer id="255" name="model_1/model/inception_resnet_v1/Block17_1_Branch_1_Conv2d_0c_7x1/StatefulPartitionedCall/Conv2D" type="Convolution" version="opset1">
			<data auto_pad="same_upper" dilations="1,1" output_padding="0,0" pads_begin="0,0" pads_end="0,0" strides="1,1"/>
			<input>
				<port id="0">
					<dim>1</dim>
					<dim>128</dim>
					<dim>8</dim>
					<dim>8</dim>
				</port>
				<port id="1">
					<dim>128</dim>
					<dim>128</dim>
					<dim>7</dim>
					<dim>1</dim>
				</port>
			</input>
			<output>
				<port id="2" precision="FP16">
					<dim>1</dim>
					<dim>128</dim>
					<dim>8</dim>
					<dim>8</dim>
				</port>
			</output>
		</layer>
		<layer id="256" name="data_add_481364814149448/EltwiseUnsqueeze51087_const" type="Const" version="opset1">
			<data element_type="f16" offset="6338656" shape="1,128,1,1" size="256"/>
			<output>
				<port id="1" precision="FP16">
					<dim>1</dim>
					<dim>128</dim>
					<dim>1</dim>
					<dim>1</dim>
				</port>
			</output>
		</layer>
		<layer id="257" name="model_1/model/inception_resnet_v1/Block17_1_Branch_1_Conv2d_0c_7x1_BatchNorm/StatefulPartitionedCall/FusedBatchNormV3/variance/Fused_Add_" type="Add" version="opset1">
			<input>
				<port id="0">
					<dim>1</dim>
					<dim>128</dim>
					<dim>8</dim>
					<dim>8</dim>
				</port>
				<port id="1">
					<dim>1</dim>
					<dim>128</dim>
					<dim>1</dim>
					<dim>1</dim>
				</port>
			</input>
			<output>
				<port id="2" precision="FP16">
					<dim>1</dim>
					<dim>128</dim>
					<dim>8</dim>
					<dim>8</dim>
				</port>
			</output>
		</layer>
		<layer id="258" name="model_1/model/inception_resnet_v1/Block17_1_Branch_1_Conv2d_0c_7x1_Activation/PartitionedCall/Relu" type="ReLU" version="opset1">
			<input>
				<port id="0">
					<dim>1</dim>
					<dim>128</dim>
					<dim>8</dim>
					<dim>8</dim>
				</port>
			</input>
			<output>
				<port id="1" precision="FP16">
					<dim>1</dim>
					<dim>128</dim>
					<dim>8</dim>
					<dim>8</dim>
				</port>
			</output>
		</layer>
		<layer id="259" name="model_1/model/inception_resnet_v1/Block17_1_Concatenate/PartitionedCall/concat" type="Concat" version="opset1">
			<data axis="1"/>
			<input>
				<port id="0">
					<dim>1</dim>
					<dim>128</dim>
					<dim>8</dim>
					<dim>8</dim>
				</port>
				<port id="1">
					<dim>1</dim>
					<dim>128</dim>
					<dim>8</dim>
					<dim>8</dim>
				</port>
			</input>
			<output>
				<port id="2" precision="FP16">
					<dim>1</dim>
					<dim>256</dim>
					<dim>8</dim>
					<dim>8</dim>
				</port>
			</output>
		</layer>
		<layer id="260" name="model_1/model/inception_resnet_v1/Block17_1_Conv2d_1x1/StatefulPartitionedCall/Conv2D/Transpose60320_const" type="Const" version="opset1">
			<data element_type="f16" offset="6338912" shape="896,256,1,1" size="458752"/>
			<output>
				<port id="1" precision="FP16">
					<dim>896</dim>
					<dim>256</dim>
					<dim>1</dim>
					<dim>1</dim>
				</port>
			</output>
		</layer>
		<layer id="261" name="model_1/model/inception_resnet_v1/Block17_1_Conv2d_1x1/StatefulPartitionedCall/Conv2D" type="Convolution" version="opset1">
			<data auto_pad="same_upper" dilations="1,1" output_padding="0,0" pads_begin="0,0" pads_end="0,0" strides="1,1"/>
			<input>
				<port id="0">
					<dim>1</dim>
					<dim>256</dim>
					<dim>8</dim>
					<dim>8</dim>
				</port>
				<port id="1">
					<dim>896</dim>
					<dim>256</dim>
					<dim>1</dim>
					<dim>1</dim>
				</port>
			</input>
			<output>
				<port id="2" precision="FP16">
					<dim>1</dim>
					<dim>896</dim>
					<dim>8</dim>
					<dim>8</dim>
				</port>
			</output>
		</layer>
		<layer id="262" name="data_add_481524815749452/EltwiseUnsqueeze51103_const" type="Const" version="opset1">
			<data element_type="f16" offset="6797664" shape="1,896,1,1" size="1792"/>
			<output>
				<port id="1" precision="FP16">
					<dim>1</dim>
					<dim>896</dim>
					<dim>1</dim>
					<dim>1</dim>
				</port>
			</output>
		</layer>
		<layer id="263" name="model_1/model/inception_resnet_v1/Block17_1_Conv2d_1x1/StatefulPartitionedCall/BiasAdd/Add/Fused_Add_" type="Add" version="opset1">
			<input>
				<port id="0">
					<dim>1</dim>
					<dim>896</dim>
					<dim>8</dim>
					<dim>8</dim>
				</port>
				<port id="1">
					<dim>1</dim>
					<dim>896</dim>
					<dim>1</dim>
					<dim>1</dim>
				</port>
			</input>
			<output>
				<port id="2" precision="FP16">
					<dim>1</dim>
					<dim>896</dim>
					<dim>8</dim>
					<dim>8</dim>
				</port>
			</output>
		</layer>
		<layer id="264" name="model_1/model/inception_resnet_v1/Block17_1_ScaleSum/PartitionedCall/add" type="Add" version="opset1">
			<input>
				<port id="0">
					<dim>1</dim>
					<dim>896</dim>
					<dim>8</dim>
					<dim>8</dim>
				</port>
				<port id="1">
					<dim>1</dim>
					<dim>896</dim>
					<dim>8</dim>
					<dim>8</dim>
				</port>
			</input>
			<output>
				<port id="2" precision="FP16">
					<dim>1</dim>
					<dim>896</dim>
					<dim>8</dim>
					<dim>8</dim>
				</port>
			</output>
		</layer>
		<layer id="265" name="model_1/model/inception_resnet_v1/Block17_1_Activation/PartitionedCall/Relu" type="ReLU" version="opset1">
			<input>
				<port id="0">
					<dim>1</dim>
					<dim>896</dim>
					<dim>8</dim>
					<dim>8</dim>
				</port>
			</input>
			<output>
				<port id="1" precision="FP16">
					<dim>1</dim>
					<dim>896</dim>
					<dim>8</dim>
					<dim>8</dim>
				</port>
			</output>
		</layer>
		<layer id="266" name="model_1/model/inception_resnet_v1/Block17_2_Branch_0_Conv2d_1x1/StatefulPartitionedCall/Conv2D/Transpose60324_const" type="Const" version="opset1">
			<data element_type="f16" offset="6799456" shape="128,896,1,1" size="229376"/>
			<output>
				<port id="1" precision="FP16">
					<dim>128</dim>
					<dim>896</dim>
					<dim>1</dim>
					<dim>1</dim>
				</port>
			</output>
		</layer>
		<layer id="267" name="model_1/model/inception_resnet_v1/Block17_2_Branch_0_Conv2d_1x1/StatefulPartitionedCall/Conv2D" type="Convolution" version="opset1">
			<data auto_pad="same_upper" dilations="1,1" output_padding="0,0" pads_begin="0,0" pads_end="0,0" strides="1,1"/>
			<input>
				<port id="0">
					<dim>1</dim>
					<dim>896</dim>
					<dim>8</dim>
					<dim>8</dim>
				</port>
				<port id="1">
					<dim>128</dim>
					<dim>896</dim>
					<dim>1</dim>
					<dim>1</dim>
				</port>
			</input>
			<output>
				<port id="2" precision="FP16">
					<dim>1</dim>
					<dim>128</dim>
					<dim>8</dim>
					<dim>8</dim>
				</port>
			</output>
		</layer>
		<layer id="268" name="data_add_481604816549454/EltwiseUnsqueeze51111_const" type="Const" version="opset1">
			<data element_type="f16" offset="7028832" shape="1,128,1,1" size="256"/>
			<output>
				<port id="1" precision="FP16">
					<dim>1</dim>
					<dim>128</dim>
					<dim>1</dim>
					<dim>1</dim>
				</port>
			</output>
		</layer>
		<layer id="269" name="model_1/model/inception_resnet_v1/Block17_2_Branch_0_Conv2d_1x1_BatchNorm/StatefulPartitionedCall/FusedBatchNormV3/variance/Fused_Add_" type="Add" version="opset1">
			<input>
				<port id="0">
					<dim>1</dim>
					<dim>128</dim>
					<dim>8</dim>
					<dim>8</dim>
				</port>
				<port id="1">
					<dim>1</dim>
					<dim>128</dim>
					<dim>1</dim>
					<dim>1</dim>
				</port>
			</input>
			<output>
				<port id="2" precision="FP16">
					<dim>1</dim>
					<dim>128</dim>
					<dim>8</dim>
					<dim>8</dim>
				</port>
			</output>
		</layer>
		<layer id="270" name="model_1/model/inception_resnet_v1/Block17_2_Branch_0_Conv2d_1x1_Activation/PartitionedCall/Relu" type="ReLU" version="opset1">
			<input>
				<port id="0">
					<dim>1</dim>
					<dim>128</dim>
					<dim>8</dim>
					<dim>8</dim>
				</port>
			</input>
			<output>
				<port id="1" precision="FP16">
					<dim>1</dim>
					<dim>128</dim>
					<dim>8</dim>
					<dim>8</dim>
				</port>
			</output>
		</layer>
		<layer id="271" name="model_1/model/inception_resnet_v1/Block17_2_Branch_1_Conv2d_0a_1x1/StatefulPartitionedCall/Conv2D/Transpose60328_const" type="Const" version="opset1">
			<data element_type="f16" offset="7029088" shape="128,896,1,1" size="229376"/>
			<output>
				<port id="1" precision="FP16">
					<dim>128</dim>
					<dim>896</dim>
					<dim>1</dim>
					<dim>1</dim>
				</port>
			</output>
		</layer>
		<layer id="272" name="model_1/model/inception_resnet_v1/Block17_2_Branch_1_Conv2d_0a_1x1/StatefulPartitionedCall/Conv2D" type="Convolution" version="opset1">
			<data auto_pad="same_upper" dilations="1,1" output_padding="0,0" pads_begin="0,0" pads_end="0,0" strides="1,1"/>
			<input>
				<port id="0">
					<dim>1</dim>
					<dim>896</dim>
					<dim>8</dim>
					<dim>8</dim>
				</port>
				<port id="1">
					<dim>128</dim>
					<dim>896</dim>
					<dim>1</dim>
					<dim>1</dim>
				</port>
			</input>
			<output>
				<port id="2" precision="FP16">
					<dim>1</dim>
					<dim>128</dim>
					<dim>8</dim>
					<dim>8</dim>
				</port>
			</output>
		</layer>
		<layer id="273" name="data_add_481684817349456/EltwiseUnsqueeze51119_const" type="Const" version="opset1">
			<data element_type="f16" offset="7258464" shape="1,128,1,1" size="256"/>
			<output>
				<port id="1" precision="FP16">
					<dim>1</dim>
					<dim>128</dim>
					<dim>1</dim>
					<dim>1</dim>
				</port>
			</output>
		</layer>
		<layer id="274" name="model_1/model/inception_resnet_v1/Block17_2_Branch_1_Conv2d_0a_1x1_BatchNorm/StatefulPartitionedCall/FusedBatchNormV3/variance/Fused_Add_" type="Add" version="opset1">
			<input>
				<port id="0">
					<dim>1</dim>
					<dim>128</dim>
					<dim>8</dim>
					<dim>8</dim>
				</port>
				<port id="1">
					<dim>1</dim>
					<dim>128</dim>
					<dim>1</dim>
					<dim>1</dim>
				</port>
			</input>
			<output>
				<port id="2" precision="FP16">
					<dim>1</dim>
					<dim>128</dim>
					<dim>8</dim>
					<dim>8</dim>
				</port>
			</output>
		</layer>
		<layer id="275" name="model_1/model/inception_resnet_v1/Block17_2_Branch_1_Conv2d_0a_1x1_Activation/PartitionedCall/Relu" type="ReLU" version="opset1">
			<input>
				<port id="0">
					<dim>1</dim>
					<dim>128</dim>
					<dim>8</dim>
					<dim>8</dim>
				</port>
			</input>
			<output>
				<port id="1" precision="FP16">
					<dim>1</dim>
					<dim>128</dim>
					<dim>8</dim>
					<dim>8</dim>
				</port>
			</output>
		</layer>
		<layer id="276" name="model_1/model/inception_resnet_v1/Block17_2_Branch_1_Conv2d_0b_1x7/StatefulPartitionedCall/Conv2D/Transpose60332_const" type="Const" version="opset1">
			<data element_type="f16" offset="7258720" shape="128,128,1,7" size="229376"/>
			<output>
				<port id="1" precision="FP16">
					<dim>128</dim>
					<dim>128</dim>
					<dim>1</dim>
					<dim>7</dim>
				</port>
			</output>
		</layer>
		<layer id="277" name="model_1/model/inception_resnet_v1/Block17_2_Branch_1_Conv2d_0b_1x7/StatefulPartitionedCall/Conv2D" type="Convolution" version="opset1">
			<data auto_pad="same_upper" dilations="1,1" output_padding="0,0" pads_begin="0,0" pads_end="0,0" strides="1,1"/>
			<input>
				<port id="0">
					<dim>1</dim>
					<dim>128</dim>
					<dim>8</dim>
					<dim>8</dim>
				</port>
				<port id="1">
					<dim>128</dim>
					<dim>128</dim>
					<dim>1</dim>
					<dim>7</dim>
				</port>
			</input>
			<output>
				<port id="2" precision="FP16">
					<dim>1</dim>
					<dim>128</dim>
					<dim>8</dim>
					<dim>8</dim>
				</port>
			</output>
		</layer>
		<layer id="278" name="data_add_481764818149458/EltwiseUnsqueeze51127_const" type="Const" version="opset1">
			<data element_type="f16" offset="7488096" shape="1,128,1,1" size="256"/>
			<output>
				<port id="1" precision="FP16">
					<dim>1</dim>
					<dim>128</dim>
					<dim>1</dim>
					<dim>1</dim>
				</port>
			</output>
		</layer>
		<layer id="279" name="model_1/model/inception_resnet_v1/Block17_2_Branch_1_Conv2d_0b_1x7_BatchNorm/StatefulPartitionedCall/FusedBatchNormV3/variance/Fused_Add_" type="Add" version="opset1">
			<input>
				<port id="0">
					<dim>1</dim>
					<dim>128</dim>
					<dim>8</dim>
					<dim>8</dim>
				</port>
				<port id="1">
					<dim>1</dim>
					<dim>128</dim>
					<dim>1</dim>
					<dim>1</dim>
				</port>
			</input>
			<output>
				<port id="2" precision="FP16">
					<dim>1</dim>
					<dim>128</dim>
					<dim>8</dim>
					<dim>8</dim>
				</port>
			</output>
		</layer>
		<layer id="280" name="model_1/model/inception_resnet_v1/Block17_2_Branch_1_Conv2d_0b_1x7_Activation/PartitionedCall/Relu" type="ReLU" version="opset1">
			<input>
				<port id="0">
					<dim>1</dim>
					<dim>128</dim>
					<dim>8</dim>
					<dim>8</dim>
				</port>
			</input>
			<output>
				<port id="1" precision="FP16">
					<dim>1</dim>
					<dim>128</dim>
					<dim>8</dim>
					<dim>8</dim>
				</port>
			</output>
		</layer>
		<layer id="281" name="model_1/model/inception_resnet_v1/Block17_2_Branch_1_Conv2d_0c_7x1/StatefulPartitionedCall/Conv2D/Transpose60336_const" type="Const" version="opset1">
			<data element_type="f16" offset="7488352" shape="128,128,7,1" size="229376"/>
			<output>
				<port id="1" precision="FP16">
					<dim>128</dim>
					<dim>128</dim>
					<dim>7</dim>
					<dim>1</dim>
				</port>
			</output>
		</layer>
		<layer id="282" name="model_1/model/inception_resnet_v1/Block17_2_Branch_1_Conv2d_0c_7x1/StatefulPartitionedCall/Conv2D" type="Convolution" version="opset1">
			<data auto_pad="same_upper" dilations="1,1" output_padding="0,0" pads_begin="0,0" pads_end="0,0" strides="1,1"/>
			<input>
				<port id="0">
					<dim>1</dim>
					<dim>128</dim>
					<dim>8</dim>
					<dim>8</dim>
				</port>
				<port id="1">
					<dim>128</dim>
					<dim>128</dim>
					<dim>7</dim>
					<dim>1</dim>
				</port>
			</input>
			<output>
				<port id="2" precision="FP16">
					<dim>1</dim>
					<dim>128</dim>
					<dim>8</dim>
					<dim>8</dim>
				</port>
			</output>
		</layer>
		<layer id="283" name="data_add_481844818949460/EltwiseUnsqueeze51135_const" type="Const" version="opset1">
			<data element_type="f16" offset="7717728" shape="1,128,1,1" size="256"/>
			<output>
				<port id="1" precision="FP16">
					<dim>1</dim>
					<dim>128</dim>
					<dim>1</dim>
					<dim>1</dim>
				</port>
			</output>
		</layer>
		<layer id="284" name="model_1/model/inception_resnet_v1/Block17_2_Branch_1_Conv2d_0c_7x1_BatchNorm/StatefulPartitionedCall/FusedBatchNormV3/variance/Fused_Add_" type="Add" version="opset1">
			<input>
				<port id="0">
					<dim>1</dim>
					<dim>128</dim>
					<dim>8</dim>
					<dim>8</dim>
				</port>
				<port id="1">
					<dim>1</dim>
					<dim>128</dim>
					<dim>1</dim>
					<dim>1</dim>
				</port>
			</input>
			<output>
				<port id="2" precision="FP16">
					<dim>1</dim>
					<dim>128</dim>
					<dim>8</dim>
					<dim>8</dim>
				</port>
			</output>
		</layer>
		<layer id="285" name="model_1/model/inception_resnet_v1/Block17_2_Branch_1_Conv2d_0c_7x1_Activation/PartitionedCall/Relu" type="ReLU" version="opset1">
			<input>
				<port id="0">
					<dim>1</dim>
					<dim>128</dim>
					<dim>8</dim>
					<dim>8</dim>
				</port>
			</input>
			<output>
				<port id="1" precision="FP16">
					<dim>1</dim>
					<dim>128</dim>
					<dim>8</dim>
					<dim>8</dim>
				</port>
			</output>
		</layer>
		<layer id="286" name="model_1/model/inception_resnet_v1/Block17_2_Concatenate/PartitionedCall/concat" type="Concat" version="opset1">
			<data axis="1"/>
			<input>
				<port id="0">
					<dim>1</dim>
					<dim>128</dim>
					<dim>8</dim>
					<dim>8</dim>
				</port>
				<port id="1">
					<dim>1</dim>
					<dim>128</dim>
					<dim>8</dim>
					<dim>8</dim>
				</port>
			</input>
			<output>
				<port id="2" precision="FP16">
					<dim>1</dim>
					<dim>256</dim>
					<dim>8</dim>
					<dim>8</dim>
				</port>
			</output>
		</layer>
		<layer id="287" name="model_1/model/inception_resnet_v1/Block17_2_Conv2d_1x1/StatefulPartitionedCall/Conv2D/Transpose60340_const" type="Const" version="opset1">
			<data element_type="f16" offset="7717984" shape="896,256,1,1" size="458752"/>
			<output>
				<port id="1" precision="FP16">
					<dim>896</dim>
					<dim>256</dim>
					<dim>1</dim>
					<dim>1</dim>
				</port>
			</output>
		</layer>
		<layer id="288" name="model_1/model/inception_resnet_v1/Block17_2_Conv2d_1x1/StatefulPartitionedCall/Conv2D" type="Convolution" version="opset1">
			<data auto_pad="same_upper" dilations="1,1" output_padding="0,0" pads_begin="0,0" pads_end="0,0" strides="1,1"/>
			<input>
				<port id="0">
					<dim>1</dim>
					<dim>256</dim>
					<dim>8</dim>
					<dim>8</dim>
				</port>
				<port id="1">
					<dim>896</dim>
					<dim>256</dim>
					<dim>1</dim>
					<dim>1</dim>
				</port>
			</input>
			<output>
				<port id="2" precision="FP16">
					<dim>1</dim>
					<dim>896</dim>
					<dim>8</dim>
					<dim>8</dim>
				</port>
			</output>
		</layer>
		<layer id="289" name="data_add_481924819749462/EltwiseUnsqueeze51143_const" type="Const" version="opset1">
			<data element_type="f16" offset="8176736" shape="1,896,1,1" size="1792"/>
			<output>
				<port id="1" precision="FP16">
					<dim>1</dim>
					<dim>896</dim>
					<dim>1</dim>
					<dim>1</dim>
				</port>
			</output>
		</layer>
		<layer id="290" name="model_1/model/inception_resnet_v1/Block17_2_Conv2d_1x1/StatefulPartitionedCall/BiasAdd/Add/Fused_Add_" type="Add" version="opset1">
			<input>
				<port id="0">
					<dim>1</dim>
					<dim>896</dim>
					<dim>8</dim>
					<dim>8</dim>
				</port>
				<port id="1">
					<dim>1</dim>
					<dim>896</dim>
					<dim>1</dim>
					<dim>1</dim>
				</port>
			</input>
			<output>
				<port id="2" precision="FP16">
					<dim>1</dim>
					<dim>896</dim>
					<dim>8</dim>
					<dim>8</dim>
				</port>
			</output>
		</layer>
		<layer id="291" name="model_1/model/inception_resnet_v1/Block17_2_ScaleSum/PartitionedCall/add" type="Add" version="opset1">
			<input>
				<port id="0">
					<dim>1</dim>
					<dim>896</dim>
					<dim>8</dim>
					<dim>8</dim>
				</port>
				<port id="1">
					<dim>1</dim>
					<dim>896</dim>
					<dim>8</dim>
					<dim>8</dim>
				</port>
			</input>
			<output>
				<port id="2" precision="FP16">
					<dim>1</dim>
					<dim>896</dim>
					<dim>8</dim>
					<dim>8</dim>
				</port>
			</output>
		</layer>
		<layer id="292" name="model_1/model/inception_resnet_v1/Block17_2_Activation/PartitionedCall/Relu" type="ReLU" version="opset1">
			<input>
				<port id="0">
					<dim>1</dim>
					<dim>896</dim>
					<dim>8</dim>
					<dim>8</dim>
				</port>
			</input>
			<output>
				<port id="1" precision="FP16">
					<dim>1</dim>
					<dim>896</dim>
					<dim>8</dim>
					<dim>8</dim>
				</port>
			</output>
		</layer>
		<layer id="293" name="model_1/model/inception_resnet_v1/Block17_3_Branch_0_Conv2d_1x1/StatefulPartitionedCall/Conv2D/Transpose60344_const" type="Const" version="opset1">
			<data element_type="f16" offset="8178528" shape="128,896,1,1" size="229376"/>
			<output>
				<port id="1" precision="FP16">
					<dim>128</dim>
					<dim>896</dim>
					<dim>1</dim>
					<dim>1</dim>
				</port>
			</output>
		</layer>
		<layer id="294" name="model_1/model/inception_resnet_v1/Block17_3_Branch_0_Conv2d_1x1/StatefulPartitionedCall/Conv2D" type="Convolution" version="opset1">
			<data auto_pad="same_upper" dilations="1,1" output_padding="0,0" pads_begin="0,0" pads_end="0,0" strides="1,1"/>
			<input>
				<port id="0">
					<dim>1</dim>
					<dim>896</dim>
					<dim>8</dim>
					<dim>8</dim>
				</port>
				<port id="1">
					<dim>128</dim>
					<dim>896</dim>
					<dim>1</dim>
					<dim>1</dim>
				</port>
			</input>
			<output>
				<port id="2" precision="FP16">
					<dim>1</dim>
					<dim>128</dim>
					<dim>8</dim>
					<dim>8</dim>
				</port>
			</output>
		</layer>
		<layer id="295" name="data_add_482004820549464/EltwiseUnsqueeze51151_const" type="Const" version="opset1">
			<data element_type="f16" offset="8407904" shape="1,128,1,1" size="256"/>
			<output>
				<port id="1" precision="FP16">
					<dim>1</dim>
					<dim>128</dim>
					<dim>1</dim>
					<dim>1</dim>
				</port>
			</output>
		</layer>
		<layer id="296" name="model_1/model/inception_resnet_v1/Block17_3_Branch_0_Conv2d_1x1_BatchNorm/StatefulPartitionedCall/FusedBatchNormV3/variance/Fused_Add_" type="Add" version="opset1">
			<input>
				<port id="0">
					<dim>1</dim>
					<dim>128</dim>
					<dim>8</dim>
					<dim>8</dim>
				</port>
				<port id="1">
					<dim>1</dim>
					<dim>128</dim>
					<dim>1</dim>
					<dim>1</dim>
				</port>
			</input>
			<output>
				<port id="2" precision="FP16">
					<dim>1</dim>
					<dim>128</dim>
					<dim>8</dim>
					<dim>8</dim>
				</port>
			</output>
		</layer>
		<layer id="297" name="model_1/model/inception_resnet_v1/Block17_3_Branch_0_Conv2d_1x1_Activation/PartitionedCall/Relu" type="ReLU" version="opset1">
			<input>
				<port id="0">
					<dim>1</dim>
					<dim>128</dim>
					<dim>8</dim>
					<dim>8</dim>
				</port>
			</input>
			<output>
				<port id="1" precision="FP16">
					<dim>1</dim>
					<dim>128</dim>
					<dim>8</dim>
					<dim>8</dim>
				</port>
			</output>
		</layer>
		<layer id="298" name="model_1/model/inception_resnet_v1/Block17_3_Branch_1_Conv2d_0a_1x1/StatefulPartitionedCall/Conv2D/Transpose60348_const" type="Const" version="opset1">
			<data element_type="f16" offset="8408160" shape="128,896,1,1" size="229376"/>
			<output>
				<port id="1" precision="FP16">
					<dim>128</dim>
					<dim>896</dim>
					<dim>1</dim>
					<dim>1</dim>
				</port>
			</output>
		</layer>
		<layer id="299" name="model_1/model/inception_resnet_v1/Block17_3_Branch_1_Conv2d_0a_1x1/StatefulPartitionedCall/Conv2D" type="Convolution" version="opset1">
			<data auto_pad="same_upper" dilations="1,1" output_padding="0,0" pads_begin="0,0" pads_end="0,0" strides="1,1"/>
			<input>
				<port id="0">
					<dim>1</dim>
					<dim>896</dim>
					<dim>8</dim>
					<dim>8</dim>
				</port>
				<port id="1">
					<dim>128</dim>
					<dim>896</dim>
					<dim>1</dim>
					<dim>1</dim>
				</port>
			</input>
			<output>
				<port id="2" precision="FP16">
					<dim>1</dim>
					<dim>128</dim>
					<dim>8</dim>
					<dim>8</dim>
				</port>
			</output>
		</layer>
		<layer id="300" name="data_add_482084821349466/EltwiseUnsqueeze51159_const" type="Const" version="opset1">
			<data element_type="f16" offset="8637536" shape="1,128,1,1" size="256"/>
			<output>
				<port id="1" precision="FP16">
					<dim>1</dim>
					<dim>128</dim>
					<dim>1</dim>
					<dim>1</dim>
				</port>
			</output>
		</layer>
		<layer id="301" name="model_1/model/inception_resnet_v1/Block17_3_Branch_1_Conv2d_0a_1x1_BatchNorm/StatefulPartitionedCall/FusedBatchNormV3/variance/Fused_Add_" type="Add" version="opset1">
			<input>
				<port id="0">
					<dim>1</dim>
					<dim>128</dim>
					<dim>8</dim>
					<dim>8</dim>
				</port>
				<port id="1">
					<dim>1</dim>
					<dim>128</dim>
					<dim>1</dim>
					<dim>1</dim>
				</port>
			</input>
			<output>
				<port id="2" precision="FP16">
					<dim>1</dim>
					<dim>128</dim>
					<dim>8</dim>
					<dim>8</dim>
				</port>
			</output>
		</layer>
		<layer id="302" name="model_1/model/inception_resnet_v1/Block17_3_Branch_1_Conv2d_0a_1x1_Activation/PartitionedCall/Relu" type="ReLU" version="opset1">
			<input>
				<port id="0">
					<dim>1</dim>
					<dim>128</dim>
					<dim>8</dim>
					<dim>8</dim>
				</port>
			</input>
			<output>
				<port id="1" precision="FP16">
					<dim>1</dim>
					<dim>128</dim>
					<dim>8</dim>
					<dim>8</dim>
				</port>
			</output>
		</layer>
		<layer id="303" name="model_1/model/inception_resnet_v1/Block17_3_Branch_1_Conv2d_0b_1x7/StatefulPartitionedCall/Conv2D/Transpose60352_const" type="Const" version="opset1">
			<data element_type="f16" offset="8637792" shape="128,128,1,7" size="229376"/>
			<output>
				<port id="1" precision="FP16">
					<dim>128</dim>
					<dim>128</dim>
					<dim>1</dim>
					<dim>7</dim>
				</port>
			</output>
		</layer>
		<layer id="304" name="model_1/model/inception_resnet_v1/Block17_3_Branch_1_Conv2d_0b_1x7/StatefulPartitionedCall/Conv2D" type="Convolution" version="opset1">
			<data auto_pad="same_upper" dilations="1,1" output_padding="0,0" pads_begin="0,0" pads_end="0,0" strides="1,1"/>
			<input>
				<port id="0">
					<dim>1</dim>
					<dim>128</dim>
					<dim>8</dim>
					<dim>8</dim>
				</port>
				<port id="1">
					<dim>128</dim>
					<dim>128</dim>
					<dim>1</dim>
					<dim>7</dim>
				</port>
			</input>
			<output>
				<port id="2" precision="FP16">
					<dim>1</dim>
					<dim>128</dim>
					<dim>8</dim>
					<dim>8</dim>
				</port>
			</output>
		</layer>
		<layer id="305" name="data_add_482164822149468/EltwiseUnsqueeze51167_const" type="Const" version="opset1">
			<data element_type="f16" offset="8867168" shape="1,128,1,1" size="256"/>
			<output>
				<port id="1" precision="FP16">
					<dim>1</dim>
					<dim>128</dim>
					<dim>1</dim>
					<dim>1</dim>
				</port>
			</output>
		</layer>
		<layer id="306" name="model_1/model/inception_resnet_v1/Block17_3_Branch_1_Conv2d_0b_1x7_BatchNorm/StatefulPartitionedCall/FusedBatchNormV3/variance/Fused_Add_" type="Add" version="opset1">
			<input>
				<port id="0">
					<dim>1</dim>
					<dim>128</dim>
					<dim>8</dim>
					<dim>8</dim>
				</port>
				<port id="1">
					<dim>1</dim>
					<dim>128</dim>
					<dim>1</dim>
					<dim>1</dim>
				</port>
			</input>
			<output>
				<port id="2" precision="FP16">
					<dim>1</dim>
					<dim>128</dim>
					<dim>8</dim>
					<dim>8</dim>
				</port>
			</output>
		</layer>
		<layer id="307" name="model_1/model/inception_resnet_v1/Block17_3_Branch_1_Conv2d_0b_1x7_Activation/PartitionedCall/Relu" type="ReLU" version="opset1">
			<input>
				<port id="0">
					<dim>1</dim>
					<dim>128</dim>
					<dim>8</dim>
					<dim>8</dim>
				</port>
…
		<edge from-layer="802" from-port="1" to-layer="803" to-port="1"/>
		<edge from-layer="803" from-port="2" to-layer="805" to-port="0"/>
		<edge from-layer="804" from-port="1" to-layer="805" to-port="1"/>
		<edge from-layer="805" from-port="2" to-layer="806" to-port="0"/>
		<edge from-layer="806" from-port="1" to-layer="808" to-port="0"/>
		<edge from-layer="807" from-port="1" to-layer="808" to-port="1"/>
		<edge from-layer="808" from-port="2" to-layer="810" to-port="0"/>
		<edge from-layer="809" from-port="1" to-layer="810" to-port="1"/>
		<edge from-layer="810" from-port="2" to-layer="811" to-port="0"/>
		<edge from-layer="786" from-port="1" to-layer="812" to-port="0"/>
		<edge from-layer="796" from-port="1" to-layer="812" to-port="1"/>
		<edge from-layer="811" from-port="1" to-layer="812" to-port="2"/>
		<edge from-layer="812" from-port="3" to-layer="814" to-port="0"/>
		<edge from-layer="813" from-port="1" to-layer="814" to-port="1"/>
		<edge from-layer="814" from-port="2" to-layer="816" to-port="0"/>
		<edge from-layer="815" from-port="1" to-layer="816" to-port="1"/>
		<edge from-layer="781" from-port="1" to-layer="817" to-port="0"/>
		<edge from-layer="816" from-port="2" to-layer="817" to-port="1"/>
		<edge from-layer="817" from-port="2" to-layer="818" to-port="0"/>
		<edge from-layer="818" from-port="1" to-layer="820" to-port="0"/>
		<edge from-layer="819" from-port="1" to-layer="820" to-port="1"/>
		<edge from-layer="820" from-port="2" to-layer="822" to-port="0"/>
		<edge from-layer="821" from-port="1" to-layer="822" to-port="1"/>
		<edge from-layer="822" from-port="2" to-layer="823" to-port="0"/>
		<edge from-layer="818" from-port="1" to-layer="825" to-port="0"/>
		<edge from-layer="824" from-port="1" to-layer="825" to-port="1"/>
		<edge from-layer="825" from-port="2" to-layer="827" to-port="0"/>
		<edge from-layer="826" from-port="1" to-layer="827" to-port="1"/>
		<edge from-layer="827" from-port="2" to-layer="828" to-port="0"/>
		<edge from-layer="828" from-port="1" to-layer="830" to-port="0"/>
		<edge from-layer="829" from-port="1" to-layer="830" to-port="1"/>
		<edge from-layer="830" from-port="2" to-layer="832" to-port="0"/>
		<edge from-layer="831" from-port="1" to-layer="832" to-port="1"/>
		<edge from-layer="832" from-port="2" to-layer="833" to-port="0"/>
		<edge from-layer="818" from-port="1" to-layer="835" to-port="0"/>
		<edge from-layer="834" from-port="1" to-layer="835" to-port="1"/>
		<edge from-layer="835" from-port="2" to-layer="837" to-port="0"/>
		<edge from-layer="836" from-port="1" to-layer="837" to-port="1"/>
		<edge from-layer="837" from-port="2" to-layer="838" to-port="0"/>
		<edge from-layer="838" from-port="1" to-layer="840" to-port="0"/>
		<edge from-layer="839" from-port="1" to-layer="840" to-port="1"/>
		<edge from-layer="840" from-port="2" to-layer="842" to-port="0"/>
		<edge from-layer="841" from-port="1" to-layer="842" to-port="1"/>
		<edge from-layer="842" from-port="2" to-layer="843" to-port="0"/>
		<edge from-layer="843" from-port="1" to-layer="845" to-port="0"/>
		<edge from-layer="844" from-port="1" to-layer="845" to-port="1"/>
		<edge from-layer="845" from-port="2" to-layer="847" to-port="0"/>
		<edge from-layer="846" from-port="1" to-layer="847" to-port="1"/>
		<edge from-layer="847" from-port="2" to-layer="848" to-port="0"/>
		<edge from-layer="823" from-port="1" to-layer="849" to-port="0"/>
		<edge from-layer="833" from-port="1" to-layer="849" to-port="1"/>
		<edge from-layer="848" from-port="1" to-layer="849" to-port="2"/>
		<edge from-layer="849" from-port="3" to-layer="851" to-port="0"/>
		<edge from-layer="850" from-port="1" to-layer="851" to-port="1"/>
		<edge from-layer="851" from-port="2" to-layer="853" to-port="0"/>
		<edge from-layer="852" from-port="1" to-layer="853" to-port="1"/>
		<edge from-layer="818" from-port="1" to-layer="854" to-port="0"/>
		<edge from-layer="853" from-port="2" to-layer="854" to-port="1"/>
		<edge from-layer="854" from-port="2" to-layer="855" to-port="0"/>
		<edge from-layer="855" from-port="1" to-layer="857" to-port="0"/>
		<edge from-layer="856" from-port="1" to-layer="857" to-port="1"/>
		<edge from-layer="857" from-port="2" to-layer="859" to-port="0"/>
		<edge from-layer="858" from-port="1" to-layer="859" to-port="1"/>
		<edge from-layer="859" from-port="2" to-layer="860" to-port="0"/>
		<edge from-layer="855" from-port="1" to-layer="862" to-port="0"/>
		<edge from-layer="861" from-port="1" to-layer="862" to-port="1"/>
		<edge from-layer="862" from-port="2" to-layer="864" to-port="0"/>
		<edge from-layer="863" from-port="1" to-layer="864" to-port="1"/>
		<edge from-layer="864" from-port="2" to-layer="865" to-port="0"/>
		<edge from-layer="865" from-port="1" to-layer="867" to-port="0"/>
		<edge from-layer="866" from-port="1" to-layer="867" to-port="1"/>
		<edge from-layer="867" from-port="2" to-layer="869" to-port="0"/>
		<edge from-layer="868" from-port="1" to-layer="869" to-port="1"/>
		<edge from-layer="869" from-port="2" to-layer="870" to-port="0"/>
		<edge from-layer="855" from-port="1" to-layer="872" to-port="0"/>
		<edge from-layer="871" from-port="1" to-layer="872" to-port="1"/>
		<edge from-layer="872" from-port="2" to-layer="874" to-port="0"/>
		<edge from-layer="873" from-port="1" to-layer="874" to-port="1"/>
		<edge from-layer="874" from-port="2" to-layer="875" to-port="0"/>
		<edge from-layer="875" from-port="1" to-layer="877" to-port="0"/>
		<edge from-layer="876" from-port="1" to-layer="877" to-port="1"/>
		<edge from-layer="877" from-port="2" to-layer="879" to-port="0"/>
		<edge from-layer="878" from-port="1" to-layer="879" to-port="1"/>
		<edge from-layer="879" from-port="2" to-layer="880" to-port="0"/>
		<edge from-layer="880" from-port="1" to-layer="882" to-port="0"/>
		<edge from-layer="881" from-port="1" to-layer="882" to-port="1"/>
		<edge from-layer="882" from-port="2" to-layer="884" to-port="0"/>
		<edge from-layer="883" from-port="1" to-layer="884" to-port="1"/>
		<edge from-layer="884" from-port="2" to-layer="885" to-port="0"/>
		<edge from-layer="860" from-port="1" to-layer="886" to-port="0"/>
		<edge from-layer="870" from-port="1" to-layer="886" to-port="1"/>
		<edge from-layer="885" from-port="1" to-layer="886" to-port="2"/>
		<edge from-layer="886" from-port="3" to-layer="888" to-port="0"/>
		<edge from-layer="887" from-port="1" to-layer="888" to-port="1"/>
		<edge from-layer="888" from-port="2" to-layer="890" to-port="0"/>
		<edge from-layer="889" from-port="1" to-layer="890" to-port="1"/>
		<edge from-layer="855" from-port="1" to-layer="891" to-port="0"/>
		<edge from-layer="890" from-port="2" to-layer="891" to-port="1"/>
		<edge from-layer="891" from-port="2" to-layer="892" to-port="0"/>
		<edge from-layer="892" from-port="1" to-layer="894" to-port="0"/>
		<edge from-layer="893" from-port="1" to-layer="894" to-port="1"/>
		<edge from-layer="894" from-port="2" to-layer="896" to-port="0"/>
		<edge from-layer="895" from-port="1" to-layer="896" to-port="1"/>
		<edge from-layer="896" from-port="2" to-layer="897" to-port="0"/>
		<edge from-layer="892" from-port="1" to-layer="899" to-port="0"/>
		<edge from-layer="898" from-port="1" to-layer="899" to-port="1"/>
		<edge from-layer="899" from-port="2" to-layer="901" to-port="0"/>
		<edge from-layer="900" from-port="1" to-layer="901" to-port="1"/>
		<edge from-layer="901" from-port="2" to-layer="902" to-port="0"/>
		<edge from-layer="902" from-port="1" to-layer="904" to-port="0"/>
		<edge from-layer="903" from-port="1" to-layer="904" to-port="1"/>
		<edge from-layer="904" from-port="2" to-layer="906" to-port="0"/>
		<edge from-layer="905" from-port="1" to-layer="906" to-port="1"/>
		<edge from-layer="906" from-port="2" to-layer="907" to-port="0"/>
		<edge from-layer="892" from-port="1" to-layer="909" to-port="0"/>
		<edge from-layer="908" from-port="1" to-layer="909" to-port="1"/>
		<edge from-layer="909" from-port="2" to-layer="911" to-port="0"/>
		<edge from-layer="910" from-port="1" to-layer="911" to-port="1"/>
		<edge from-layer="911" from-port="2" to-layer="912" to-port="0"/>
		<edge from-layer="912" from-port="1" to-layer="914" to-port="0"/>
		<edge from-layer="913" from-port="1" to-layer="914" to-port="1"/>
		<edge from-layer="914" from-port="2" to-layer="916" to-port="0"/>
		<edge from-layer="915" from-port="1" to-layer="916" to-port="1"/>
		<edge from-layer="916" from-port="2" to-layer="917" to-port="0"/>
		<edge from-layer="917" from-port="1" to-layer="919" to-port="0"/>
		<edge from-layer="918" from-port="1" to-layer="919" to-port="1"/>
		<edge from-layer="919" from-port="2" to-layer="921" to-port="0"/>
		<edge from-layer="920" from-port="1" to-layer="921" to-port="1"/>
		<edge from-layer="921" from-port="2" to-layer="922" to-port="0"/>
		<edge from-layer="897" from-port="1" to-layer="923" to-port="0"/>
		<edge from-layer="907" from-port="1" to-layer="923" to-port="1"/>
		<edge from-layer="922" from-port="1" to-layer="923" to-port="2"/>
		<edge from-layer="923" from-port="3" to-layer="925" to-port="0"/>
		<edge from-layer="924" from-port="1" to-layer="925" to-port="1"/>
		<edge from-layer="925" from-port="2" to-layer="927" to-port="0"/>
		<edge from-layer="926" from-port="1" to-layer="927" to-port="1"/>
		<edge from-layer="892" from-port="1" to-layer="928" to-port="0"/>
		<edge from-layer="927" from-port="2" to-layer="928" to-port="1"/>
		<edge from-layer="928" from-port="2" to-layer="929" to-port="0"/>
		<edge from-layer="929" from-port="1" to-layer="931" to-port="0"/>
		<edge from-layer="930" from-port="1" to-layer="931" to-port="1"/>
		<edge from-layer="931" from-port="2" to-layer="933" to-port="0"/>
		<edge from-layer="932" from-port="1" to-layer="933" to-port="1"/>
		<edge from-layer="933" from-port="2" to-layer="934" to-port="0"/>
		<edge from-layer="929" from-port="1" to-layer="936" to-port="0"/>
		<edge from-layer="935" from-port="1" to-layer="936" to-port="1"/>
		<edge from-layer="936" from-port="2" to-layer="938" to-port="0"/>
		<edge from-layer="937" from-port="1" to-layer="938" to-port="1"/>
		<edge from-layer="938" from-port="2" to-layer="939" to-port="0"/>
		<edge from-layer="939" from-port="1" to-layer="941" to-port="0"/>
		<edge from-layer="940" from-port="1" to-layer="941" to-port="1"/>
		<edge from-layer="941" from-port="2" to-layer="943" to-port="0"/>
		<edge from-layer="942" from-port="1" to-layer="943" to-port="1"/>
		<edge from-layer="943" from-port="2" to-layer="944" to-port="0"/>
		<edge from-layer="944" from-port="1" to-layer="946" to-port="0"/>
		<edge from-layer="945" from-port="1" to-layer="946" to-port="1"/>
		<edge from-layer="946" from-port="2" to-layer="948" to-port="0"/>
		<edge from-layer="947" from-port="1" to-layer="948" to-port="1"/>
		<edge from-layer="948" from-port="2" to-layer="949" to-port="0"/>
		<edge from-layer="929" from-port="1" to-layer="950" to-port="0"/>
		<edge from-layer="934" from-port="1" to-layer="951" to-port="0"/>
		<edge from-layer="949" from-port="1" to-layer="951" to-port="1"/>
		<edge from-layer="950" from-port="1" to-layer="951" to-port="2"/>
		<edge from-layer="951" from-port="3" to-layer="953" to-port="0"/>
		<edge from-layer="952" from-port="1" to-layer="953" to-port="1"/>
		<edge from-layer="953" from-port="2" to-layer="955" to-port="0"/>
		<edge from-layer="954" from-port="1" to-layer="955" to-port="1"/>
		<edge from-layer="955" from-port="2" to-layer="956" to-port="0"/>
		<edge from-layer="951" from-port="3" to-layer="958" to-port="0"/>
		<edge from-layer="957" from-port="1" to-layer="958" to-port="1"/>
		<edge from-layer="958" from-port="2" to-layer="960" to-port="0"/>
		<edge from-layer="959" from-port="1" to-layer="960" to-port="1"/>
		<edge from-layer="960" from-port="2" to-layer="961" to-port="0"/>
		<edge from-layer="961" from-port="1" to-layer="963" to-port="0"/>
		<edge from-layer="962" from-port="1" to-layer="963" to-port="1"/>
		<edge from-layer="963" from-port="2" to-layer="965" to-port="0"/>
		<edge from-layer="964" from-port="1" to-layer="965" to-port="1"/>
		<edge from-layer="965" from-port="2" to-layer="966" to-port="0"/>
		<edge from-layer="966" from-port="1" to-layer="968" to-port="0"/>
		<edge from-layer="967" from-port="1" to-layer="968" to-port="1"/>
		<edge from-layer="968" from-port="2" to-layer="970" to-port="0"/>
		<edge from-layer="969" from-port="1" to-layer="970" to-port="1"/>
		<edge from-layer="970" from-port="2" to-layer="971" to-port="0"/>
		<edge from-layer="956" from-port="1" to-layer="972" to-port="0"/>
		<edge from-layer="971" from-port="1" to-layer="972" to-port="1"/>
		<edge from-layer="972" from-port="2" to-layer="974" to-port="0"/>
		<edge from-layer="973" from-port="1" to-layer="974" to-port="1"/>
		<edge from-layer="974" from-port="2" to-layer="976" to-port="0"/>
		<edge from-layer="975" from-port="1" to-layer="976" to-port="1"/>
		<edge from-layer="951" from-port="3" to-layer="977" to-port="0"/>
		<edge from-layer="976" from-port="2" to-layer="977" to-port="1"/>
		<edge from-layer="977" from-port="2" to-layer="978" to-port="0"/>
		<edge from-layer="978" from-port="1" to-layer="980" to-port="0"/>
		<edge from-layer="979" from-port="1" to-layer="980" to-port="1"/>
		<edge from-layer="980" from-port="2" to-layer="982" to-port="0"/>
		<edge from-layer="981" from-port="1" to-layer="982" to-port="1"/>
		<edge from-layer="982" from-port="2" to-layer="983" to-port="0"/>
		<edge from-layer="978" from-port="1" to-layer="985" to-port="0"/>
		<edge from-layer="984" from-port="1" to-layer="985" to-port="1"/>
		<edge from-layer="985" from-port="2" to-layer="987" to-port="0"/>
		<edge from-layer="986" from-port="1" to-layer="987" to-port="1"/>
		<edge from-layer="987" from-port="2" to-layer="988" to-port="0"/>
		<edge from-layer="988" from-port="1" to-layer="990" to-port="0"/>
		<edge from-layer="989" from-port="1" to-layer="990" to-port="1"/>
		<edge from-layer="990" from-port="2" to-layer="992" to-port="0"/>
		<edge from-layer="991" from-port="1" to-layer="992" to-port="1"/>
		<edge from-layer="992" from-port="2" to-layer="993" to-port="0"/>
		<edge from-layer="993" from-port="1" to-layer="995" to-port="0"/>
		<edge from-layer="994" from-port="1" to-layer="995" to-port="1"/>
		<edge from-layer="995" from-port="2" to-layer="997" to-port="0"/>
		<edge from-layer="996" from-port="1" to-layer="997" to-port="1"/>
		<edge from-layer="997" from-port="2" to-layer="998" to-port="0"/>
		<edge from-layer="983" from-port="1" to-layer="999" to-port="0"/>
		<edge from-layer="998" from-port="1" to-layer="999" to-port="1"/>
		<edge from-layer="999" from-port="2" to-layer="1001" to-port="0"/>
		<edge from-layer="1000" from-port="1" to-layer="1001" to-port="1"/>
		<edge from-layer="1001" from-port="2" to-layer="1003" to-port="0"/>
		<edge from-layer="1002" from-port="1" to-layer="1003" to-port="1"/>
		<edge from-layer="978" from-port="1" to-layer="1004" to-port="0"/>
		<edge from-layer="1003" from-port="2" to-layer="1004" to-port="1"/>
		<edge from-layer="1004" from-port="2" to-layer="1005" to-port="0"/>
		<edge from-layer="1005" from-port="1" to-layer="1007" to-port="0"/>
		<edge from-layer="1006" from-port="1" to-layer="1007" to-port="1"/>
		<edge from-layer="1007" from-port="2" to-layer="1009" to-port="0"/>
		<edge from-layer="1008" from-port="1" to-layer="1009" to-port="1"/>
		<edge from-layer="1009" from-port="2" to-layer="1010" to-port="0"/>
		<edge from-layer="1005" from-port="1" to-layer="1012" to-port="0"/>
		<edge from-layer="1011" from-port="1" to-layer="1012" to-port="1"/>
		<edge from-layer="1012" from-port="2" to-layer="1014" to-port="0"/>
		<edge from-layer="1013" from-port="1" to-layer="1014" to-port="1"/>
		<edge from-layer="1014" from-port="2" to-layer="1015" to-port="0"/>
		<edge from-layer="1015" from-port="1" to-layer="1017" to-port="0"/>
		<edge from-layer="1016" from-port="1" to-layer="1017" to-port="1"/>
		<edge from-layer="1017" from-port="2" to-layer="1019" to-port="0"/>
		<edge from-layer="1018" from-port="1" to-layer="1019" to-port="1"/>
		<edge from-layer="1019" from-port="2" to-layer="1020" to-port="0"/>
		<edge from-layer="1020" from-port="1" to-layer="1022" to-port="0"/>
		<edge from-layer="1021" from-port="1" to-layer="1022" to-port="1"/>
		<edge from-layer="1022" from-port="2" to-layer="1024" to-port="0"/>
		<edge from-layer="1023" from-port="1" to-layer="1024" to-port="1"/>
		<edge from-layer="1024" from-port="2" to-layer="1025" to-port="0"/>
		<edge from-layer="1010" from-port="1" to-layer="1026" to-port="0"/>
		<edge from-layer="1025" from-port="1" to-layer="1026" to-port="1"/>
		<edge from-layer="1026" from-port="2" to-layer="1028" to-port="0"/>
		<edge from-layer="1027" from-port="1" to-layer="1028" to-port="1"/>
		<edge from-layer="1028" from-port="2" to-layer="1030" to-port="0"/>
		<edge from-layer="1029" from-port="1" to-layer="1030" to-port="1"/>
		<edge from-layer="1005" from-port="1" to-layer="1031" to-port="0"/>
		<edge from-layer="1030" from-port="2" to-layer="1031" to-port="1"/>
		<edge from-layer="1031" from-port="2" to-layer="1032" to-port="0"/>
		<edge from-layer="1032" from-port="1" to-layer="1034" to-port="0"/>
		<edge from-layer="1033" from-port="1" to-layer="1034" to-port="1"/>
		<edge from-layer="1034" from-port="2" to-layer="1036" to-port="0"/>
		<edge from-layer="1035" from-port="1" to-layer="1036" to-port="1"/>
		<edge from-layer="1036" from-port="2" to-layer="1037" to-port="0"/>
		<edge from-layer="1032" from-port="1" to-layer="1039" to-port="0"/>
		<edge from-layer="1038" from-port="1" to-layer="1039" to-port="1"/>
		<edge from-layer="1039" from-port="2" to-layer="1041" to-port="0"/>
		<edge from-layer="1040" from-port="1" to-layer="1041" to-port="1"/>
		<edge from-layer="1041" from-port="2" to-layer="1042" to-port="0"/>
		<edge from-layer="1042" from-port="1" to-layer="1044" to-port="0"/>
		<edge from-layer="1043" from-port="1" to-layer="1044" to-port="1"/>
		<edge from-layer="1044" from-port="2" to-layer="1046" to-port="0"/>
		<edge from-layer="1045" from-port="1" to-layer="1046" to-port="1"/>
		<edge from-layer="1046" from-port="2" to-layer="1047" to-port="0"/>
		<edge from-layer="1047" from-port="1" to-layer="1049" to-port="0"/>
		<edge from-layer="1048" from-port="1" to-layer="1049" to-port="1"/>
		<edge from-layer="1049" from-port="2" to-layer="1051" to-port="0"/>
		<edge from-layer="1050" from-port="1" to-layer="1051" to-port="1"/>
		<edge from-layer="1051" from-port="2" to-layer="1052" to-port="0"/>
		<edge from-layer="1037" from-port="1" to-layer="1053" to-port="0"/>
		<edge from-layer="1052" from-port="1" to-layer="1053" to-port="1"/>
		<edge from-layer="1053" from-port="2" to-layer="1055" to-port="0"/>
		<edge from-layer="1054" from-port="1" to-layer="1055" to-port="1"/>
		<edge from-layer="1055" from-port="2" to-layer="1057" to-port="0"/>
		<edge from-layer="1056" from-port="1" to-layer="1057" to-port="1"/>
		<edge from-layer="1032" from-port="1" to-layer="1058" to-port="0"/>
		<edge from-layer="1057" from-port="2" to-layer="1058" to-port="1"/>
		<edge from-layer="1058" from-port="2" to-layer="1059" to-port="0"/>
		<edge from-layer="1059" from-port="1" to-layer="1061" to-port="0"/>
		<edge from-layer="1060" from-port="1" to-layer="1061" to-port="1"/>
		<edge from-layer="1061" from-port="2" to-layer="1063" to-port="0"/>
		<edge from-layer="1062" from-port="1" to-layer="1063" to-port="1"/>
		<edge from-layer="1063" from-port="2" to-layer="1064" to-port="0"/>
		<edge from-layer="1059" from-port="1" to-layer="1066" to-port="0"/>
		<edge from-layer="1065" from-port="1" to-layer="1066" to-port="1"/>
		<edge from-layer="1066" from-port="2" to-layer="1068" to-port="0"/>
		<edge from-layer="1067" from-port="1" to-layer="1068" to-port="1"/>
		<edge from-layer="1068" from-port="2" to-layer="1069" to-port="0"/>
		<edge from-layer="1069" from-port="1" to-layer="1071" to-port="0"/>
		<edge from-layer="1070" from-port="1" to-layer="1071" to-port="1"/>
		<edge from-layer="1071" from-port="2" to-layer="1073" to-port="0"/>
		<edge from-layer="1072" from-port="1" to-layer="1073" to-port="1"/>
		<edge from-layer="1073" from-port="2" to-layer="1074" to-port="0"/>
		<edge from-layer="1074" from-port="1" to-layer="1076" to-port="0"/>
		<edge from-layer="1075" from-port="1" to-layer="1076" to-port="1"/>
		<edge from-layer="1076" from-port="2" to-layer="1078" to-port="0"/>
		<edge from-layer="1077" from-port="1" to-layer="1078" to-port="1"/>
		<edge from-layer="1078" from-port="2" to-layer="1079" to-port="0"/>
		<edge from-layer="1064" from-port="1" to-layer="1080" to-port="0"/>
		<edge from-layer="1079" from-port="1" to-layer="1080" to-port="1"/>
		<edge from-layer="1080" from-port="2" to-layer="1082" to-port="0"/>
		<edge from-layer="1081" from-port="1" to-layer="1082" to-port="1"/>
		<edge from-layer="1082" from-port="2" to-layer="1084" to-port="0"/>
		<edge from-layer="1083" from-port="1" to-layer="1084" to-port="1"/>
		<edge from-layer="1059" from-port="1" to-layer="1085" to-port="0"/>
		<edge from-layer="1084" from-port="2" to-layer="1085" to-port="1"/>
		<edge from-layer="1085" from-port="2" to-layer="1086" to-port="0"/>
		<edge from-layer="1086" from-port="1" to-layer="1088" to-port="0"/>
		<edge from-layer="1087" from-port="1" to-layer="1088" to-port="1"/>
		<edge from-layer="1088" from-port="2" to-layer="1090" to-port="0"/>
		<edge from-layer="1089" from-port="1" to-layer="1090" to-port="1"/>
		<edge from-layer="1090" from-port="2" to-layer="1091" to-port="0"/>
		<edge from-layer="1086" from-port="1" to-layer="1093" to-port="0"/>
		<edge from-layer="1092" from-port="1" to-layer="1093" to-port="1"/>
		<edge from-layer="1093" from-port="2" to-layer="1095" to-port="0"/>
		<edge from-layer="1094" from-port="1" to-layer="1095" to-port="1"/>
		<edge from-layer="1095" from-port="2" to-layer="1096" to-port="0"/>
		<edge from-layer="1096" from-port="1" to-layer="1098" to-port="0"/>
		<edge from-layer="1097" from-port="1" to-layer="1098" to-port="1"/>
		<edge from-layer="1098" from-port="2" to-layer="1100" to-port="0"/>
		<edge from-layer="1099" from-port="1" to-layer="1100" to-port="1"/>
		<edge from-layer="1100" from-port="2" to-layer="1101" to-port="0"/>
		<edge from-layer="1101" from-port="1" to-layer="1103" to-port="0"/>
		<edge from-layer="1102" from-port="1" to-layer="1103" to-port="1"/>
		<edge from-layer="1103" from-port="2" to-layer="1105" to-port="0"/>
		<edge from-layer="1104" from-port="1" to-layer="1105" to-port="1"/>
		<edge from-layer="1105" from-port="2" to-layer="1106" to-port="0"/>
		<edge from-layer="1091" from-port="1" to-layer="1107" to-port="0"/>
		<edge from-layer="1106" from-port="1" to-layer="1107" to-port="1"/>
		<edge from-layer="1107" from-port="2" to-layer="1109" to-port="0"/>
		<edge from-layer="1108" from-port="1" to-layer="1109" to-port="1"/>
		<edge from-layer="1109" from-port="2" to-layer="1111" to-port="0"/>
		<edge from-layer="1110" from-port="1" to-layer="1111" to-port="1"/>
		<edge from-layer="1086" from-port="1" to-layer="1112" to-port="0"/>
		<edge from-layer="1111" from-port="2" to-layer="1112" to-port="1"/>
		<edge from-layer="1112" from-port="2" to-layer="1113" to-port="0"/>
		<edge from-layer="1113" from-port="1" to-layer="1115" to-port="0"/>
		<edge from-layer="1114" from-port="1" to-layer="1115" to-port="1"/>
		<edge from-layer="1115" from-port="2" to-layer="1117" to-port="0"/>
		<edge from-layer="1116" from-port="1" to-layer="1117" to-port="1"/>
		<edge from-layer="1117" from-port="2" to-layer="1118" to-port="0"/>
		<edge from-layer="1113" from-port="1" to-layer="1120" to-port="0"/>
		<edge from-layer="1119" from-port="1" to-layer="1120" to-port="1"/>
		<edge from-layer="1120" from-port="2" to-layer="1122" to-port="0"/>
		<edge from-layer="1121" from-port="1" to-layer="1122" to-port="1"/>
		<edge from-layer="1122" from-port="2" to-layer="1123" to-port="0"/>
		<edge from-layer="1123" from-port="1" to-layer="1125" to-port="0"/>
		<edge from-layer="1124" from-port="1" to-layer="1125" to-port="1"/>
		<edge from-layer="1125" from-port="2" to-layer="1127" to-port="0"/>
		<edge from-layer="1126" from-port="1" to-layer="1127" to-port="1"/>
		<edge from-layer="1127" from-port="2" to-layer="1128" to-port="0"/>
		<edge from-layer="1128" from-port="1" to-layer="1130" to-port="0"/>
		<edge from-layer="1129" from-port="1" to-layer="1130" to-port="1"/>
		<edge from-layer="1130" from-port="2" to-layer="1132" to-port="0"/>
		<edge from-layer="1131" from-port="1" to-layer="1132" to-port="1"/>
		<edge from-layer="1132" from-port="2" to-layer="1133" to-port="0"/>
		<edge from-layer="1118" from-port="1" to-layer="1134" to-port="0"/>
		<edge from-layer="1133" from-port="1" to-layer="1134" to-port="1"/>
		<edge from-layer="1134" from-port="2" to-layer="1136" to-port="0"/>
		<edge from-layer="1135" from-port="1" to-layer="1136" to-port="1"/>
		<edge from-layer="1136" from-port="2" to-layer="1138" to-port="0"/>
		<edge from-layer="1137" from-port="1" to-layer="1138" to-port="1"/>
		<edge from-layer="1113" from-port="1" to-layer="1139" to-port="0"/>
		<edge from-layer="1138" from-port="2" to-layer="1139" to-port="1"/>
		<edge from-layer="1139" from-port="2" to-layer="1140" to-port="0"/>
		<edge from-layer="1140" from-port="1" to-layer="1142" to-port="0"/>
		<edge from-layer="1141" from-port="1" to-layer="1142" to-port="1"/>
		<edge from-layer="1142" from-port="2" to-layer="1144" to-port="0"/>
		<edge from-layer="1143" from-port="1" to-layer="1144" to-port="1"/>
		<edge from-layer="1144" from-port="2" to-layer="1145" to-port="0"/>
		<edge from-layer="1140" from-port="1" to-layer="1147" to-port="0"/>
		<edge from-layer="1146" from-port="1" to-layer="1147" to-port="1"/>
		<edge from-layer="1147" from-port="2" to-layer="1149" to-port="0"/>
		<edge from-layer="1148" from-port="1" to-layer="1149" to-port="1"/>
		<edge from-layer="1149" from-port="2" to-layer="1150" to-port="0"/>
		<edge from-layer="1150" from-port="1" to-layer="1152" to-port="0"/>
		<edge from-layer="1151" from-port="1" to-layer="1152" to-port="1"/>
		<edge from-layer="1152" from-port="2" to-layer="1154" to-port="0"/>
		<edge from-layer="1153" from-port="1" to-layer="1154" to-port="1"/>
		<edge from-layer="1154" from-port="2" to-layer="1155" to-port="0"/>
		<edge from-layer="1155" from-port="1" to-layer="1157" to-port="0"/>
		<edge from-layer="1156" from-port="1" to-layer="1157" to-port="1"/>
		<edge from-layer="1157" from-port="2" to-layer="1159" to-port="0"/>
		<edge from-layer="1158" from-port="1" to-layer="1159" to-port="1"/>
		<edge from-layer="1159" from-port="2" to-layer="1160" to-port="0"/>
		<edge from-layer="1145" from-port="1" to-layer="1161" to-port="0"/>
		<edge from-layer="1160" from-port="1" to-layer="1161" to-port="1"/>
		<edge from-layer="1161" from-port="2" to-layer="1163" to-port="0"/>
		<edge from-layer="1162" from-port="1" to-layer="1163" to-port="1"/>
		<edge from-layer="1163" from-port="2" to-layer="1165" to-port="0"/>
		<edge from-layer="1164" from-port="1" to-layer="1165" to-port="1"/>
		<edge from-layer="1140" from-port="1" to-layer="1166" to-port="0"/>
		<edge from-layer="1165" from-port="2" to-layer="1166" to-port="1"/>
		<edge from-layer="1166" from-port="2" to-layer="1167" to-port="0"/>
		<edge from-layer="1167" from-port="1" to-layer="1169" to-port="0"/>
		<edge from-layer="1168" from-port="1" to-layer="1169" to-port="1"/>
		<edge from-layer="1169" from-port="2" to-layer="1171" to-port="0"/>
		<edge from-layer="1170" from-port="1" to-layer="1171" to-port="1"/>
		<edge from-layer="1171" from-port="2" to-layer="1172" to-port="0"/>
		<edge from-layer="1167" from-port="1" to-layer="1174" to-port="0"/>
		<edge from-layer="1173" from-port="1" to-layer="1174" to-port="1"/>
		<edge from-layer="1174" from-port="2" to-layer="1176" to-port="0"/>
		<edge from-layer="1175" from-port="1" to-layer="1176" to-port="1"/>
		<edge from-layer="1176" from-port="2" to-layer="1177" to-port="0"/>
		<edge from-layer="1177" from-port="1" to-layer="1179" to-port="0"/>
		<edge from-layer="1178" from-port="1" to-layer="1179" to-port="1"/>
		<edge from-layer="1179" from-port="2" to-layer="1181" to-port="0"/>
		<edge from-layer="1180" from-port="1" to-layer="1181" to-port="1"/>
		<edge from-layer="1181" from-port="2" to-layer="1182" to-port="0"/>
		<edge from-layer="1182" from-port="1" to-layer="1184" to-port="0"/>
		<edge from-layer="1183" from-port="1" to-layer="1184" to-port="1"/>
		<edge from-layer="1184" from-port="2" to-layer="1186" to-port="0"/>
		<edge from-layer="1185" from-port="1" to-layer="1186" to-port="1"/>
		<edge from-layer="1186" from-port="2" to-layer="1187" to-port="0"/>
		<edge from-layer="1172" from-port="1" to-layer="1188" to-port="0"/>
		<edge from-layer="1187" from-port="1" to-layer="1188" to-port="1"/>
		<edge from-layer="1188" from-port="2" to-layer="1190" to-port="0"/>
		<edge from-layer="1189" from-port="1" to-layer="1190" to-port="1"/>
		<edge from-layer="1190" from-port="2" to-layer="1192" to-port="0"/>
		<edge from-layer="1191" from-port="1" to-layer="1192" to-port="1"/>
		<edge from-layer="1167" from-port="1" to-layer="1193" to-port="0"/>
		<edge from-layer="1192" from-port="2" to-layer="1193" to-port="1"/>
		<edge from-layer="1193" from-port="2" to-layer="1194" to-port="0"/>
		<edge from-layer="1194" from-port="1" to-layer="1196" to-port="0"/>
		<edge from-layer="1195" from-port="1" to-layer="1196" to-port="1"/>
		<edge from-layer="1196" from-port="2" to-layer="1198" to-port="0"/>
		<edge from-layer="1197" from-port="1" to-layer="1198" to-port="1"/>
		<edge from-layer="1198" from-port="2" to-layer="1199" to-port="0"/>
		<edge from-layer="1194" from-port="1" to-layer="1201" to-port="0"/>
		<edge from-layer="1200" from-port="1" to-layer="1201" to-port="1"/>
		<edge from-layer="1201" from-port="2" to-layer="1203" to-port="0"/>
		<edge from-layer="1202" from-port="1" to-layer="1203" to-port="1"/>
		<edge from-layer="1203" from-port="2" to-layer="1204" to-port="0"/>
		<edge from-layer="1204" from-port="1" to-layer="1206" to-port="0"/>
		<edge from-layer="1205" from-port="1" to-layer="1206" to-port="1"/>
		<edge from-layer="1206" from-port="2" to-layer="1208" to-port="0"/>
		<edge from-layer="1207" from-port="1" to-layer="1208" to-port="1"/>
		<edge from-layer="1208" from-port="2" to-layer="1209" to-port="0"/>
		<edge from-layer="1209" from-port="1" to-layer="1211" to-port="0"/>
		<edge from-layer="1210" from-port="1" to-layer="1211" to-port="1"/>
		<edge from-layer="1211" from-port="2" to-layer="1213" to-port="0"/>
		<edge from-layer="1212" from-port="1" to-layer="1213" to-port="1"/>
		<edge from-layer="1213" from-port="2" to-layer="1214" to-port="0"/>
		<edge from-layer="1199" from-port="1" to-layer="1215" to-port="0"/>
		<edge from-layer="1214" from-port="1" to-layer="1215" to-port="1"/>
		<edge from-layer="1215" from-port="2" to-layer="1217" to-port="0"/>
		<edge from-layer="1216" from-port="1" to-layer="1217" to-port="1"/>
		<edge from-layer="1217" from-port="2" to-layer="1219" to-port="0"/>
		<edge from-layer="1218" from-port="1" to-layer="1219" to-port="1"/>
		<edge from-layer="1194" from-port="1" to-layer="1220" to-port="0"/>
		<edge from-layer="1219" from-port="2" to-layer="1220" to-port="1"/>
		<edge from-layer="1220" from-port="2" to-layer="1221" to-port="0"/>
		<edge from-layer="1221" from-port="1" to-layer="1223" to-port="0"/>
		<edge from-layer="1222" from-port="1" to-layer="1223" to-port="1"/>
		<edge from-layer="1223" from-port="2" to-layer="1225" to-port="0"/>
		<edge from-layer="1224" from-port="1" to-layer="1225" to-port="1"/>
		<edge from-layer="1225" from-port="2" to-layer="1226" to-port="0"/>
		<edge from-layer="1226" from-port="1" to-layer="1228" to-port="0"/>
		<edge from-layer="1227" from-port="1" to-layer="1228" to-port="1"/>
		<edge from-layer="1228" from-port="2" to-layer="1230" to-port="0"/>
		<edge from-layer="1229" from-port="1" to-layer="1230" to-port="1"/>
		<edge from-layer="1230" from-port="2" to-layer="1231" to-port="0"/>
		<edge from-layer="1221" from-port="1" to-layer="1233" to-port="0"/>
		<edge from-layer="1232" from-port="1" to-layer="1233" to-port="1"/>
		<edge from-layer="1233" from-port="2" to-layer="1235" to-port="0"/>
		<edge from-layer="1234" from-port="1" to-layer="1235" to-port="1"/>
		<edge from-layer="1235" from-port="2" to-layer="1236" to-port="0"/>
		<edge from-layer="1236" from-port="1" to-layer="1238" to-port="0"/>
		<edge from-layer="1237" from-port="1" to-layer="1238" to-port="1"/>
		<edge from-layer="1238" from-port="2" to-layer="1240" to-port="0"/>
		<edge from-layer="1239" from-port="1" to-layer="1240" to-port="1"/>
		<edge from-layer="1240" from-port="2" to-layer="1241" to-port="0"/>
		<edge from-layer="1221" from-port="1" to-layer="1243" to-port="0"/>
		<edge from-layer="1242" from-port="1" to-layer="1243" to-port="1"/>
		<edge from-layer="1243" from-port="2" to-layer="1245" to-port="0"/>
		<edge from-layer="1244" from-port="1" to-layer="1245" to-port="1"/>
		<edge from-layer="1245" from-port="2" to-layer="1246" to-port="0"/>
		<edge from-layer="1246" from-port="1" to-layer="1248" to-port="0"/>
		<edge from-layer="1247" from-port="1" to-layer="1248" to-port="1"/>
		<edge from-layer="1248" from-port="2" to-layer="1250" to-port="0"/>
		<edge from-layer="1249" from-port="1" to-layer="1250" to-port="1"/>
		<edge from-layer="1250" from-port="2" to-layer="1251" to-port="0"/>
		<edge from-layer="1251" from-port="1" to-layer="1253" to-port="0"/>
		<edge from-layer="1252" from-port="1" to-layer="1253" to-port="1"/>
		<edge from-layer="1253" from-port="2" to-layer="1255" to-port="0"/>
		<edge from-layer="1254" from-port="1" to-layer="1255" to-port="1"/>
		<edge from-layer="1255" from-port="2" to-layer="1256" to-port="0"/>
		<edge from-layer="1221" from-port="1" to-layer="1257" to-port="0"/>
		<edge from-layer="1231" from-port="1" to-layer="1258" to-port="0"/>
		<edge from-layer="1241" from-port="1" to-layer="1258" to-port="1"/>
		<edge from-layer="1256" from-port="1" to-layer="1258" to-port="2"/>
		<edge from-layer="1257" from-port="1" to-layer="1258" to-port="3"/>
		<edge from-layer="1258" from-port="4" to-layer="1260" to-port="0"/>
		<edge from-layer="1259" from-port="1" to-layer="1260" to-port="1"/>
		<edge from-layer="1260" from-port="2" to-layer="1262" to-port="0"/>
		<edge from-layer="1261" from-port="1" to-layer="1262" to-port="1"/>
		<edge from-layer="1262" from-port="2" to-layer="1263" to-port="0"/>
		<edge from-layer="1258" from-port="4" to-layer="1265" to-port="0"/>
		<edge from-layer="1264" from-port="1" to-layer="1265" to-port="1"/>
		<edge from-layer="1265" from-port="2" to-layer="1267" to-port="0"/>
		<edge from-layer="1266" from-port="1" to-layer="1267" to-port="1"/>
		<edge from-layer="1267" from-port="2" to-layer="1268" to-port="0"/>
		<edge from-layer="1268" from-port="1" to-layer="1270" to-port="0"/>
		<edge from-layer="1269" from-port="1" to-layer="1270" to-port="1"/>
		<edge from-layer="1270" from-port="2" to-layer="1272" to-port="0"/>
		<edge from-layer="1271" from-port="1" to-layer="1272" to-port="1"/>
		<edge from-layer="1272" from-port="2" to-layer="1273" to-port="0"/>
		<edge from-layer="1273" from-port="1" to-layer="1275" to-port="0"/>
		<edge from-layer="1274" from-port="1" to-layer="1275" to-port="1"/>
		<edge from-layer="1275" from-port="2" to-layer="1277" to-port="0"/>
		<edge from-layer="1276" from-port="1" to-layer="1277" to-port="1"/>
		<edge from-layer="1277" from-port="2" to-layer="1278" to-port="0"/>
		<edge from-layer="1263" from-port="1" to-layer="1279" to-port="0"/>
		<edge from-layer="1278" from-port="1" to-layer="1279" to-port="1"/>
		<edge from-layer="1279" from-port="2" to-layer="1281" to-port="0"/>
		<edge from-layer="1280" from-port="1" to-layer="1281" to-port="1"/>
		<edge from-layer="1281" from-port="2" to-layer="1283" to-port="0"/>
		<edge from-layer="1282" from-port="1" to-layer="1283" to-port="1"/>
		<edge from-layer="1258" from-port="4" to-layer="1284" to-port="0"/>
		<edge from-layer="1283" from-port="2" to-layer="1284" to-port="1"/>
		<edge from-layer="1284" from-port="2" to-layer="1285" to-port="0"/>
		<edge from-layer="1285" from-port="1" to-layer="1287" to-port="0"/>
		<edge from-layer="1286" from-port="1" to-layer="1287" to-port="1"/>
		<edge from-layer="1287" from-port="2" to-layer="1289" to-port="0"/>
		<edge from-layer="1288" from-port="1" to-layer="1289" to-port="1"/>
		<edge from-layer="1289" from-port="2" to-layer="1290" to-port="0"/>
		<edge from-layer="1285" from-port="1" to-layer="1292" to-port="0"/>
		<edge from-layer="1291" from-port="1" to-layer="1292" to-port="1"/>
		<edge from-layer="1292" from-port="2" to-layer="1294" to-port="0"/>
		<edge from-layer="1293" from-port="1" to-layer="1294" to-port="1"/>
		<edge from-layer="1294" from-port="2" to-layer="1295" to-port="0"/>
		<edge from-layer="1295" from-port="1" to-layer="1297" to-port="0"/>
		<edge from-layer="1296" from-port="1" to-layer="1297" to-port="1"/>
		<edge from-layer="1297" from-port="2" to-layer="1299" to-port="0"/>
		<edge from-layer="1298" from-port="1" to-layer="1299" to-port="1"/>
		<edge from-layer="1299" from-port="2" to-layer="1300" to-port="0"/>
		<edge from-layer="1300" from-port="1" to-layer="1302" to-port="0"/>
		<edge from-layer="1301" from-port="1" to-layer="1302" to-port="1"/>
		<edge from-layer="1302" from-port="2" to-layer="1304" to-port="0"/>
		<edge from-layer="1303" from-port="1" to-layer="1304" to-port="1"/>
		<edge from-layer="1304" from-port="2" to-layer="1305" to-port="0"/>
		<edge from-layer="1290" from-port="1" to-layer="1306" to-port="0"/>
		<edge from-layer="1305" from-port="1" to-layer="1306" to-port="1"/>
		<edge from-layer="1306" from-port="2" to-layer="1308" to-port="0"/>
		<edge from-layer="1307" from-port="1" to-layer="1308" to-port="1"/>
		<edge from-layer="1308" from-port="2" to-layer="1310" to-port="0"/>
		<edge from-layer="1309" from-port="1" to-layer="1310" to-port="1"/>
		<edge from-layer="1285" from-port="1" to-layer="1311" to-port="0"/>
		<edge from-layer="1310" from-port="2" to-layer="1311" to-port="1"/>
		<edge from-layer="1311" from-port="2" to-layer="1312" to-port="0"/>
		<edge from-layer="1312" from-port="1" to-layer="1314" to-port="0"/>
		<edge from-layer="1313" from-port="1" to-layer="1314" to-port="1"/>
		<edge from-layer="1314" from-port="2" to-layer="1316" to-port="0"/>
		<edge from-layer="1315" from-port="1" to-layer="1316" to-port="1"/>
		<edge from-layer="1316" from-port="2" to-layer="1317" to-port="0"/>
		<edge from-layer="1312" from-port="1" to-layer="1319" to-port="0"/>
		<edge from-layer="1318" from-port="1" to-layer="1319" to-port="1"/>
		<edge from-layer="1319" from-port="2" to-layer="1321" to-port="0"/>
		<edge from-layer="1320" from-port="1" to-layer="1321" to-port="1"/>
		<edge from-layer="1321" from-port="2" to-layer="1322" to-port="0"/>
		<edge from-layer="1322" from-port="1" to-layer="1324" to-port="0"/>
		<edge from-layer="1323" from-port="1" to-layer="1324" to-port="1"/>
		<edge from-layer="1324" from-port="2" to-layer="1326" to-port="0"/>
		<edge from-layer="1325" from-port="1" to-layer="1326" to-port="1"/>
		<edge from-layer="1326" from-port="2" to-layer="1327" to-port="0"/>
		<edge from-layer="1327" from-port="1" to-layer="1329" to-port="0"/>
		<edge from-layer="1328" from-port="1" to-layer="1329" to-port="1"/>
		<edge from-layer="1329" from-port="2" to-layer="1331" to-port="0"/>
		<edge from-layer="1330" from-port="1" to-layer="1331" to-port="1"/>
		<edge from-layer="1331" from-port="2" to-layer="1332" to-port="0"/>
		<edge from-layer="1317" from-port="1" to-layer="1333" to-port="0"/>
		<edge from-layer="1332" from-port="1" to-layer="1333" to-port="1"/>
		<edge from-layer="1333" from-port="2" to-layer="1335" to-port="0"/>
		<edge from-layer="1334" from-port="1" to-layer="1335" to-port="1"/>
		<edge from-layer="1335" from-port="2" to-layer="1337" to-port="0"/>
		<edge from-layer="1336" from-port="1" to-layer="1337" to-port="1"/>
		<edge from-layer="1312" from-port="1" to-layer="1338" to-port="0"/>
		<edge from-layer="1337" from-port="2" to-layer="1338" to-port="1"/>
		<edge from-layer="1338" from-port="2" to-layer="1339" to-port="0"/>
		<edge from-layer="1339" from-port="1" to-layer="1341" to-port="0"/>
		<edge from-layer="1340" from-port="1" to-layer="1341" to-port="1"/>
		<edge from-layer="1341" from-port="2" to-layer="1343" to-port="0"/>
		<edge from-layer="1342" from-port="1" to-layer="1343" to-port="1"/>
		<edge from-layer="1343" from-port="2" to-layer="1344" to-port="0"/>
		<edge from-layer="1339" from-port="1" to-layer="1346" to-port="0"/>
		<edge from-layer="1345" from-port="1" to-layer="1346" to-port="1"/>
		<edge from-layer="1346" from-port="2" to-layer="1348" to-port="0"/>
		<edge from-layer="1347" from-port="1" to-layer="1348" to-port="1"/>
		<edge from-layer="1348" from-port="2" to-layer="1349" to-port="0"/>
		<edge from-layer="1349" from-port="1" to-layer="1351" to-port="0"/>
		<edge from-layer="1350" from-port="1" to-layer="1351" to-port="1"/>
		<edge from-layer="1351" from-port="2" to-layer="1353" to-port="0"/>
		<edge from-layer="1352" from-port="1" to-layer="1353" to-port="1"/>
		<edge from-layer="1353" from-port="2" to-layer="1354" to-port="0"/>
		<edge from-layer="1354" from-port="1" to-layer="1356" to-port="0"/>
		<edge from-layer="1355" from-port="1" to-layer="1356" to-port="1"/>
		<edge from-layer="1356" from-port="2" to-layer="1358" to-port="0"/>
		<edge from-layer="1357" from-port="1" to-layer="1358" to-port="1"/>
		<edge from-layer="1358" from-port="2" to-layer="1359" to-port="0"/>
		<edge from-layer="1344" from-port="1" to-layer="1360" to-port="0"/>
		<edge from-layer="1359" from-port="1" to-layer="1360" to-port="1"/>
		<edge from-layer="1360" from-port="2" to-layer="1362" to-port="0"/>
		<edge from-layer="1361" from-port="1" to-layer="1362" to-port="1"/>
		<edge from-layer="1362" from-port="2" to-layer="1364" to-port="0"/>
		<edge from-layer="1363" from-port="1" to-layer="1364" to-port="1"/>
		<edge from-layer="1339" from-port="1" to-layer="1365" to-port="0"/>
		<edge from-layer="1364" from-port="2" to-layer="1365" to-port="1"/>
		<edge from-layer="1365" from-port="2" to-layer="1366" to-port="0"/>
		<edge from-layer="1366" from-port="1" to-layer="1368" to-port="0"/>
		<edge from-layer="1367" from-port="1" to-layer="1368" to-port="1"/>
		<edge from-layer="1368" from-port="2" to-layer="1370" to-port="0"/>
		<edge from-layer="1369" from-port="1" to-layer="1370" to-port="1"/>
		<edge from-layer="1370" from-port="2" to-layer="1371" to-port="0"/>
		<edge from-layer="1366" from-port="1" to-layer="1373" to-port="0"/>
		<edge from-layer="1372" from-port="1" to-layer="1373" to-port="1"/>
		<edge from-layer="1373" from-port="2" to-layer="1375" to-port="0"/>
		<edge from-layer="1374" from-port="1" to-layer="1375" to-port="1"/>
		<edge from-layer="1375" from-port="2" to-layer="1376" to-port="0"/>
		<edge from-layer="1376" from-port="1" to-layer="1378" to-port="0"/>
		<edge from-layer="1377" from-port="1" to-layer="1378" to-port="1"/>
		<edge from-layer="1378" from-port="2" to-layer="1380" to-port="0"/>
		<edge from-layer="1379" from-port="1" to-layer="1380" to-port="1"/>
		<edge from-layer="1380" from-port="2" to-layer="1381" to-port="0"/>
		<edge from-layer="1381" from-port="1" to-layer="1383" to-port="0"/>
		<edge from-layer="1382" from-port="1" to-layer="1383" to-port="1"/>
		<edge from-layer="1383" from-port="2" to-layer="1385" to-port="0"/>
		<edge from-layer="1384" from-port="1" to-layer="1385" to-port="1"/>
		<edge from-layer="1385" from-port="2" to-layer="1386" to-port="0"/>
		<edge from-layer="1371" from-port="1" to-layer="1387" to-port="0"/>
		<edge from-layer="1386" from-port="1" to-layer="1387" to-port="1"/>
		<edge from-layer="1387" from-port="2" to-layer="1389" to-port="0"/>
		<edge from-layer="1388" from-port="1" to-layer="1389" to-port="1"/>
		<edge from-layer="1389" from-port="2" to-layer="1391" to-port="0"/>
		<edge from-layer="1390" from-port="1" to-layer="1391" to-port="1"/>
		<edge from-layer="1366" from-port="1" to-layer="1392" to-port="0"/>
		<edge from-layer="1391" from-port="2" to-layer="1392" to-port="1"/>
		<edge from-layer="1392" from-port="2" to-layer="1393" to-port="0"/>
		<edge from-layer="1393" from-port="1" to-layer="1395" to-port="0"/>
		<edge from-layer="1394" from-port="1" to-layer="1395" to-port="1"/>
		<edge from-layer="1395" from-port="2" to-layer="1397" to-port="0"/>
		<edge from-layer="1396" from-port="1" to-layer="1397" to-port="1"/>
		<edge from-layer="1397" from-port="2" to-layer="1398" to-port="0"/>
		<edge from-layer="1393" from-port="1" to-layer="1400" to-port="0"/>
		<edge from-layer="1399" from-port="1" to-layer="1400" to-port="1"/>
		<edge from-layer="1400" from-port="2" to-layer="1402" to-port="0"/>
		<edge from-layer="1401" from-port="1" to-layer="1402" to-port="1"/>
		<edge from-layer="1402" from-port="2" to-layer="1403" to-port="0"/>
		<edge from-layer="1403" from-port="1" to-layer="1405" to-port="0"/>
		<edge from-layer="1404" from-port="1" to-layer="1405" to-port="1"/>
		<edge from-layer="1405" from-port="2" to-layer="1407" to-port="0"/>
		<edge from-layer="1406" from-port="1" to-layer="1407" to-port="1"/>
		<edge from-layer="1407" from-port="2" to-layer="1408" to-port="0"/>
		<edge from-layer="1408" from-port="1" to-layer="1410" to-port="0"/>
		<edge from-layer="1409" from-port="1" to-layer="1410" to-port="1"/>
		<edge from-layer="1410" from-port="2" to-layer="1412" to-port="0"/>
		<edge from-layer="1411" from-port="1" to-layer="1412" to-port="1"/>
		<edge from-layer="1412" from-port="2" to-layer="1413" to-port="0"/>
		<edge from-layer="1398" from-port="1" to-layer="1414" to-port="0"/>
		<edge from-layer="1413" from-port="1" to-layer="1414" to-port="1"/>
		<edge from-layer="1414" from-port="2" to-layer="1416" to-port="0"/>
		<edge from-layer="1415" from-port="1" to-layer="1416" to-port="1"/>
		<edge from-layer="1416" from-port="2" to-layer="1418" to-port="0"/>
		<edge from-layer="1417" from-port="1" to-layer="1418" to-port="1"/>
		<edge from-layer="1393" from-port="1" to-layer="1419" to-port="0"/>
		<edge from-layer="1418" from-port="2" to-layer="1419" to-port="1"/>
		<edge from-layer="1419" from-port="2" to-layer="1421" to-port="0"/>
		<edge from-layer="1420" from-port="1" to-layer="1421" to-port="1"/>
		<edge from-layer="1421" from-port="2" to-layer="1423" to-port="0"/>
		<edge from-layer="1422" from-port="1" to-layer="1423" to-port="1"/>
		<edge from-layer="1423" from-port="2" to-layer="1425" to-port="0"/>
		<edge from-layer="1424" from-port="1" to-layer="1425" to-port="1"/>
		<edge from-layer="712" from-port="2" to-layer="1426" to-port="0"/>
		<edge from-layer="1425" from-port="2" to-layer="1426" to-port="1"/>
		<edge from-layer="1426" from-port="2" to-layer="1428" to-port="0"/>
		<edge from-layer="1427" from-port="1" to-layer="1428" to-port="1"/>
		<edge from-layer="1428" from-port="2" to-layer="1430" to-port="0"/>
		<edge from-layer="1429" from-port="1" to-layer="1430" to-port="1"/>
		<edge from-layer="1430" from-port="2" to-layer="1432" to-port="0"/>
		<edge from-layer="1431" from-port="1" to-layer="1432" to-port="1"/>
		<edge from-layer="1432" from-port="2" to-layer="1434" to-port="0"/>
		<edge from-layer="1433" from-port="1" to-layer="1434" to-port="1"/>
		<edge from-layer="1434" from-port="2" to-layer="1436" to-port="0"/>
		<edge from-layer="1435" from-port="1" to-layer="1436" to-port="1"/>
		<edge from-layer="1436" from-port="2" to-layer="1438" to-port="0"/>
		<edge from-layer="1437" from-port="1" to-layer="1438" to-port="1"/>
		<edge from-layer="1438" from-port="2" to-layer="1440" to-port="0"/>
		<edge from-layer="1439" from-port="1" to-layer="1440" to-port="1"/>
		<edge from-layer="1440" from-port="2" to-layer="1441" to-port="0"/>
		<edge from-layer="1441" from-port="1" to-layer="1442" to-port="0"/>
	</edges>
	<meta_data>
		<MO_version value="2021.2.0-1877-176bdf51370-releases/2021/2"/>
		<cli_parameters>
			<caffe_parser_path value="DIR"/>
			<data_type value="FP16"/>
			<disable_nhwc_to_nchw value="False"/>
			<disable_omitting_optional value="False"/>
			<disable_resnet_optimization value="False"/>
			<disable_weights_compression value="False"/>
			<enable_concat_optimization value="False"/>
			<enable_flattening_nested_params value="False"/>
			<enable_ssd_gluoncv value="False"/>
			<extensions value="DIR"/>
			<framework value="tf"/>
			<freeze_placeholder_with_value value="{}"/>
			<generate_deprecated_IR_V7 value="False"/>
			<input value="x,x_1"/>
			<input_model value="DIR\faceNetOneshotJune.pb"/>
			<input_model_is_text value="False"/>
			<input_shape value="[1,160,160,3],[1,160,160,3]"/>
			<k value="DIR\CustomLayersMapping.xml"/>
			<keep_shape_ops value="True"/>
			<legacy_mxnet_model value="False"/>
			<log_level value="ERROR"/>
			<mean_scale_values value="{}"/>
			<mean_values value="()"/>
			<model_name value="faceNetOneshotJune"/>
			<output_dir value="DIR"/>
			<placeholder_data_types value="{}"/>
			<placeholder_shapes value="{'x': array([  1, 160, 160,   3], dtype=int64), 'x_1': array([  1, 160, 160,   3], dtype=int64)}"/>
			<progress value="False"/>
			<remove_memory value="False"/>
			<remove_output_softmax value="False"/>
			<reverse_input_channels value="True"/>
			<save_params_from_nd value="False"/>
			<scale_values value="()"/>
			<silent value="False"/>
			<static_shape value="False"/>
			<stream_output value="False"/>
			<unset unset_cli_parameters="batch, counts, disable_fusing, disable_gfusing, finegrain_fusing, input_checkpoint, input_meta_graph, input_proto, input_symbol, mean_file, mean_file_offsets, move_to_preprocess, nd_prefix_name, output, pretrained_model_name, saved_model_dir, saved_model_tags, scale, tensorboard_logdir, tensorflow_custom_layer_libraries, tensorflow_custom_operations_config_update, tensorflow_object_detection_api_pipeline_config, tensorflow_use_custom_operations_config, transformations_config"/>
		</cli_parameters>
	</meta_data>
</net>
